main/model/SOH带实时输入量化模型/滑窗24，推未来五轮/converted_model.tflite (tflite, 316828 bytes, 19 tensors)

dense_1/bias f4 [5]
00000000: f611 693f 3a02 693f 89f2 683f 80e4 683f
00000010: cbd7 683f
0.9104303 0.9101902 0.9099508 0.90973663 0.90954274

dense/bias f4 [64]
00000000: a214 7ebc 25ac a4bc 9bbd 05bd cc01 eabc
00000010: c26f a53c f760 c33c 78c7 a93c 345e 61bd
00000020: 9dc0 c2bc cee8 d7bc 32fc 69bd 9866 b4bc
00000030: 23ac 9abd cee1 4fbd 5f6e a3bd 2790 aebc
00000040: c9a6 78bd 9bc2 97bc 15e8 fdbb 2653 893c
00000050: 7bf0 9b3c 46ad 9e3c 2946 90bd 307f 9e3c
00000060: c7be 8ebc c050 19bd bbc8 21bc 54ca b63c
00000070: 1731 99bc c0b8 ab3c e861 593c c309 39bd
00000080: 35b1 acbc a846 85bd 4b4d 72bd de5c 8ebd
00000090: 8629 8e3c 1bb0 a13c 6f5a a63c 153e 96bd
000000a0: 47c2 19bd 1789 9f3c 8d3d a23c 7972 b43c
000000b0: 645c 38bd 7e51 81bd aa08 20bd 75bb 66bd
000000c0: e76e a13c 5dcf adbd 7935 9fbc c4b0 953c
000000d0: 0a94 7bbb c6c2 6cbd 0019 8bbc be16 a7bc
000000e0: 7e86 f7bc 4bf9 adbc 437c b3bc e646 a4bc
000000f0: 0b1d a53c 2392 5bbd 8cf2 81bd c29f b83c
-0.015507849 -0.020101616 -0.032651525 -0.02856531 0.020194892 0.023849947 0.020724997 -0.05502148
-0.023773486 -0.026356127 -0.057125278 -0.022021577 -0.07552364 -0.050752454 -0.07980036 -0.021308972
-0.060705934 -0.018525412 -0.0077486136 0.016763281 0.019035568 0.019369733 -0.07044632 0.019347757
-0.017424954 -0.037430525 -0.009874518 0.022313274 -0.018700166 0.02096212 0.013267972 -0.045175325
-0.021080593 -0.06507617 -0.059155744 -0.06951307 0.017353784 0.019737294 0.020306794 -0.0733606
-0.037538793 0.01947455 0.01980474 0.022027241 -0.045009986 -0.063143715 -0.039070763 -0.056331117
0.019706203 -0.08486817 -0.019434677 0.018272765 -0.0038387799 -0.057802938 -0.016979694 -0.020396587
-0.030215498 -0.021237036 -0.021909839 -0.020053338 0.02015545 -0.053606164 -0.0634509 0.022537116

std.constant3 f4 [128, 128]
00000000: 13d9 363d 171f 83bd 992c 95bd 3e39 9d3c
00000010: fc71 9c3d 29c9 e0bd 89d4 4e3c 516a ae3d
00000020: c416 91bd caa0 82bd da7f b2bd 836b 023d
00000030: dd9e 72bd 2d03 203e 53b3 0b3d 34bc 5f3b
00000040: 7e0e 5fbd 8cd7 94bc 6383 82bd 65d9 41be
00000050: 8de9 7a3d 6544 933d 2bd2 0dbc be3d 503d
00000060: 22a5 78bd b8be b63c 60dc 18be 3495 a5bc
00000070: 1667 ebba 5863 013d 31e2 0f3e 4d18 f13c
00000080: 7848 14bd 2495 f6ba b57c 72bb 6e60 c33c
00000090: aefd 1c3d 2541 c9bd e1b5 febc 21c3 fc3a
000000a0: be3e 66bd 6900 353d b7ab 2e3a 0225 8ebd
000000b0: a829 2f3c 6743 79bd f641 59bc 1ac7 9fbd
000000c0: 4b75 a43c e291 3cbd b8b8 153e 1cc9 8cbc
000000d0: 1093 a5be 692e cebc 2c9a 0c3c e7fc 2abe
000000e0: 3f17 bd3b 8db0 b03c 7369 023d a950 1bbd
000000f0: 0c83 ca3c 8344 60bd b695 8dbd 4ec8 e03c
00000100: 20af 8c3d c725 313d bc70 13bd e5d5 23bd
00000110: bf3c c6bc 791c 373d 35f9 60bb 241a 683d
00000120: ca9d 623d d5c3 113b e713 ca3d 75e9 c1bd
00000130: 0c3d 8f3d 853b 023c 73f2 94bd 8f3e 3a3d
00000140: 3faf 6abd 906c ac3d 6574 0ebe 512c e93d
00000150: 39b6 633d 8142 4ebd ff8d 913d 3f46 27bd
00000160: 2476 46bd 81c4 cdbd 2903 953d 1cb9 383d
00000170: 9c7f ccbd d4cc e0ba 1be7 42bd 7341 11bd
00000180: 1b77 1cbe cdba 9b3d 4a87 633b 04a6 84bd
00000190: b3a2 643c 6473 90bd 3be0 82bc cffd a23d
000001a0: c41b 103e 3135 63bd ba96 17bd ca57 493d
000001b0: b4a7 39bd a8ba 9fbd 6687 94bb acf7 633d
000001c0: 7680 953d 4113 dbbc 7f47 8f3d fd0e 673d
000001d0: 1833 63bc f06c 69bd 0b25 91bb a0b6 26be
000001e0: cc1a f43c 1a98 633d 1537 6d3c 4f03 0a3d
000001f0: 87f6 323d 2eb7 ee3c d764 c9bd 863c da3b
00000200: 480d 0c3d e21a 683d 8ce6 dc3b 1dd0 cfbc
00000210: 4850 93bd 5777 8cbd 2387 333d f7ee 773d
00000220: c41d cabc 020b 8b3c 2639 143d e40e 0d3d
00000230: 88de 5cbc e518 9c3d 37ed 3bba eb1f 693d
00000240: ee9d 89bd 1edf bebc 91c2 01bc c507 0e3d
00000250: 9710 113a 1d6e 553d 796c 9bbd b21e 59bc
00000260: d4e7 be3d 194d 833d cdda b4bd 4c1a 24bd
00000270: b0d4 d03c ebca 533d 7485 fa3c 6fa8 333c
00000280: 0e7f 2abd 48da d3bc 74c9 d43d 05d4 423d
00000290: ddf1 febc 881a 19bd 2f33 013d 40c5 46bd
000002a0: f663 073d 6b7e 86bd 3847 c33c 5b98 7e3c
000002b0: 1a86 ac3b c3f2 36bd c661 223b 23b2 c93d
000002c0: c5bd 23bc c8a2 85bb 983d ff3a 2a9a 0f3d
000002d0: 1815 873c da35 18bd 8048 a3bd d5c1 983c
000002e0: d1ba 30bd 2883 89bd e4e0 fa3b 2bad c4bc
000002f0: dc77 01bb 878e 953a 18db ae3d 07b9 7dbd
00000300: ff14 f0bb 6b29 4ebc d84b 01bd c19f dd3c
00000310: eb37 97bc 389c 80bd a1a4 20bb b7ca 33bc
00000320: 9e0d e8bc 402c cbbc 4569 38bd fb43 65bc
00000330: b071 25bc 634d fe3c d3ca 803c 843c f33c
00000340: 2635 b2bb 5f4c 19ba 6369 1139 c741 093d
00000350: 8f9a 613d 6229 cf3c 8654 78bc 6a57 173d
00000360: f3ae b73c bfe3 403d 9522 02bd 4456 9dbd
00000370: e024 e2bd 0157 34bd 758e a5bc 4feb 10be
00000380: 87c1 aabc fb9e 3abd 6608 c2bb 3632 a5bd
00000390: 3999 693d 7a48 b939 6da6 9f3c c792 7fbd
000003a0: 8df1 2ebb eb1b 443d 6694 0a3c 06ec 9abd
000003b0: 9b66 193b b565 923d 5eaa 9fbc a073 20bd
000003c0: 225f a9ba c831 c83b e7c5 37bd e705 8bbd
000003d0: 4557 c4bc 5904 dcbc 6e53 7abd 2bbc d4bc
000003e0: 0171 d5ba bd8e 91bd 02a5 0a3c 2a7e 923c
000003f0: 6acd 193d 6dd1 903c b266 a83b b399 393b
0.04464061 -0.06402414 -0.07283897 0.019192334 0.07638928 -0.10975868 0.0126239145 0.08516372
-0.0708442 -0.06378324 -0.08715792 0.031840812 -0.059233535 0.15626211 0.034106564 0.0034139277
-0.05445718 -0.018169187 -0.06372716 -0.18930586 0.061257888 0.071907796 -0.008656065 0.050840132
-0.060704358 0.022307739 -0.14927816 -0.020212747 -0.0017959799 0.031588882 0.14051129 0.029430533
-0.036201924 -0.0018812758 -0.00370006 0.023849692 0.038327865 -0.098268785 -0.031092586 0.0019284227
-0.05621218 0.044189844 0.0006663161 -0.069406524 0.010691084 -0.060855296 -0.013260355 -0.078016475
0.02007546 -0.046037562 0.14621246 -0.01718574 -0.32338762 -0.025168614 0.008581679 -0.16698037
0.0057705934 0.021568561 0.031838845 -0.03791872 0.024720691 -0.054752838 -0.06913321 0.027439263
0.0686934 0.043248918 -0.035996184 -0.039998908 -0.024198888 0.044704888 -0.0034328226 0.056665555
0.05532626 0.002224197 0.09867077 -0.094683565 0.06994066 0.007948761 -0.07272806 0.045469817
-0.057296034 0.08419144 -0.13911588 0.11385406 0.055593703 -0.05035639 0.07107162 -0.040838476
-0.04845251 -0.10047246 0.072759934 0.04509841 -0.09985277 -0.0017150887 -0.04758368 -0.035462808
-0.1527981 0.07603989 0.003471809 -0.064769775 0.013954806 -0.07053259 -0.015976062 0.079585664
0.14073092 -0.05547065 -0.03700898 0.049155988 -0.04532595 -0.07799274 -0.0045327423 0.05565612
0.072998926 -0.02674258 0.06996059 0.05641078 -0.013867162 -0.056988657 -0.0044294647 -0.16280603
0.029797934 0.055564977 0.014478465 0.03369456 0.043692138 0.029140081 -0.09833687 0.006660047
0.034192353 0.056666262 0.0067413505 -0.02536779 -0.07193047 -0.068587 0.04383005 0.06053063
-0.024672396 0.016973022 0.036187313 0.03443803 -0.01348079 0.07621936 -0.00071688317 0.056915205
-0.06719576 -0.02329975 -0.007919923 0.03467538 0.0005533783 0.052106965 -0.07589049 -0.013251947
0.093215615 0.064111896 -0.088307954 -0.04006414 0.025492042 0.05170719 0.030581214 0.010965451
-0.041625075 -0.02586092 0.10389987 0.04756548 -0.031121189 -0.037378818 0.031542953 -0.048527956
0.033054315 -0.06567081 0.02383767 0.015539254 0.0052650096 -0.04466511 0.0024777516 0.0984843
-0.009993975 -0.004078243 0.0019473312 0.03505913 0.01648955 -0.03716073 -0.07972813 0.018647114
-0.043146912 -0.06714469 0.0076562036 -0.024008354 -0.001975528 0.0011410274 0.085378826 -0.061944034
-0.0073267217 -0.012583117 -0.03156647 0.027053716 -0.018459281 -0.06279796 -0.002451219 -0.010973624
-0.028326806 -0.024801373 -0.045022268 -0.013993259 -0.010097906 0.03104276 0.015721714 0.029691942
-0.0054384647 -0.0005847867 0.00013867537 0.033509996 0.05507904 0.025288288 -0.015156871 0.0369486
0.02242229 0.047092196 -0.03177126 -0.076824695 -0.110421896 -0.044028286 -0.02020953 -0.14152263
-0.020844234 -0.04556177 -0.0059214113 -0.080662176 0.05703089 0.0003533995 0.019488538 -0.062395837
-0.0026694268 0.047878187 0.0084582325 -0.07564549 0.0023407105 0.07148305 -0.019490417 -0.03917277
-0.0012922029 0.00610945 -0.04486647 -0.06788235 -0.023967395 -0.026857542 -0.06111472 -0.025968632
-0.0016284288 -0.07107303 0.0084621925 0.017882425 0.037549414 0.017677987 0.0051391954 0.0028320372

std.constant4 f4 [128, 128]
00000000: ce1f 0c3d 4b93 6dbd da53 63bc cc58 2f3d
00000010: 07b7 a53c c983 8a3d b5f5 4bbc aa3b 50bd
00000020: 9b15 fb3d d67b cd3c 4923 02bd 2100 81bb
00000030: 82e4 b7b9 a425 b13c 1a12 ab3a ff69 933b
00000040: 0c03 733d a084 1fbd 30e1 b0bc 5844 09bd
00000050: ef5a 453d c271 6bbd c6f9 adbd 0290 a63d
00000060: 3484 b03c 3927 ae3b c423 c3bd 0f86 a8bd
00000070: 87c1 c53d c239 743c 38a4 8bbc 2dfa 273d
00000080: 43f1 91bd b86c abbd 2b8c 443d 6d87 033e
00000090: 29a3 0d3d a1bc 6dbd b028 063d 2a12 6fbc
000000a0: f48f d7bc b2c6 703c 33da a53c 055e 173d
000000b0: e3b8 3fbc 2481 193c 0109 96bd ac42 c7bd
000000c0: ce8e 98ba ddae 05bd 8e4e 9b3d 0853 563c
000000d0: b52d a6bd a279 49bd 796c 1e3d e754 fa3c
000000e0: 3857 4bbd 0e28 9f3b 060a 36bd 961d 37ba
000000f0: 3212 9c3b 8be5 4dbd 1877 583c 7319 d1bd
00000100: d061 d03c 1ca1 56bd 19db 1a3d 0b6d 813b
00000110: da6d 143b 3623 50bc 6396 dfbc 16d5 1f3d
00000120: b604 0f3d 9f60 773c 6b0d 283d a285 ea3c
00000130: 83c2 4bbc 26ea d6bc 53fa 62bd a5a3 bdbd
00000140: 49f9 03be 1bd1 463d f4b7 b2bd 1840 42bc
00000150: 62ab 5abc 3f03 47bd fba5 d0ba 66ec 4ebd
00000160: ea5b ccbd f7fb 89bd 4121 52bd f40b eabb
00000170: 1070 20bd f32c 0fbc f73b ff3c 460b 5d3c
00000180: c5f7 2fbd 9fc5 8b3d 6c2a dd3c 19ae 133a
00000190: 1ddc 37bd 5ead 4dbd abac c6bb 733a b03c
000001a0: 862f 673d 9218 563d d7bc 023c 6c2f 883d
000001b0: 7578 92bd 1bb2 713b 41e7 4e3c 1746 6dbd
000001c0: 1bcd 00bd 23c5 f93c 1fe8 6bbd 0acf 33bd
000001d0: 7a21 3dbd 6c34 d2bc f93f 503b 04e0 d9bd
000001e0: 94fa 1cbd 32ed aebc 561d e1bc a7de 5a3d
000001f0: 6437 47bd 205b 5bbd b9d8 a8bc 44ca 873d
00000200: c231 b93c 760c 14bb e2f1 01bd 505c c63d
00000210: 434f 06bc bc2d b1bd 1bd1 54bd 2490 1ebb
00000220: ab7e 7c3d 7457 8fbd 95cd db3c 7b67 e0bc
00000230: 18ec c33d 9c26 abbc ca51 e8bc f98c 8cbd
00000240: 70de 293c c346 61bc cccc 4cbc 5bec 2dbc
00000250: 1525 62bc a50d 923b 022b de3c d853 e7bb
00000260: a9c7 5cbd a258 4f3c 727d 93bc f683 393d
00000270: d6b5 013c 1bf6 863d a47b 27bd d76c 97bc
00000280: a322 33bb dd16 d2ba 5cd4 6b3d 3118 a8bc
00000290: c636 793d a979 5f3d 131c 903d e5a6 f13a
000002a0: 1420 bbbc a75c 1bbd bb22 f13b 3fc9 9cbc
000002b0: 6d29 b33c d0fb b0bb a88a 46bd a802 a23d
000002c0: 634d 093d 5c70 77bd 8661 2fbd a7d1 65bd
000002d0: 8fb4 acbc 403a 3cbd de50 10bc d21b b63d
000002e0: e69a fc3b b2e2 15bc 1d35 85bc 478c 183d
000002f0: c4af 133d 4e4e d1bd 8703 12bd 8b5e 983d
00000300: e263 6d3c 8900 a63c 066e 8a3c 1050 4abd
00000310: ba95 2d3c 613c 8c3c 16f7 6dbd b755 b1bd
00000320: a111 843d 3c7d 5f3c 6c6c 613d 52e5 68bc
00000330: b702 f8bc 9c8c a23d 7e03 cebd bdd6 6cbd
00000340: ad5f b5ba f955 fb3b 2413 92bd d36b 423c
00000350: d330 2a3d 02db 4dbd 94db 8bb9 6a83 693d
00000360: b088 7f3d 897f b6bd 6d75 5cbc dddf e73c
00000370: b581 3cbb 994d 89bd 0db6 fabb 8a60 4c3c
00000380: 7e10 dc3c 6f2e 9abc 0e54 833d 4955 4b3d
00000390: 693f 95bd f738 c6bc 54e8 c83d 5ea0 b93d
000003a0: a236 5c3c 159e a0bd 99ca 1fbd edf8 3d3c
000003b0: 04c1 0ebd 072d 89bd 9685 093e 2688 26bc
000003c0: 1dc6 3fbd 7da4 363c 2ac7 bcbb 4c89 dcbc
000003d0: 0435 393d c716 ad3c dcc1 2c3d 522e c2bc
000003e0: d868 553d 5b0c 8ebd cf77 ee3c afef c03c
000003f0: b5b6 cebc b5b8 bb3c 4255 55bd f2fe 8ebc
0.03421002 -0.058001798 -0.013874972 0.042809293 0.020228876 0.06763417 -0.012448718 -0.05083815
0.1225998 0.025083464 -0.03177193 -0.003936783 -0.00035074732 0.021624394 0.0013051659 0.0044987197
0.059329078 -0.03894484 -0.021591753 -0.033512443 0.048182424 -0.057481535 -0.08494906 0.08132936
0.021547414 0.0053147343 -0.09528306 -0.08228695 0.09656053 0.014906349 -0.017046079 0.04101007
-0.07126095 -0.08370346 0.047985237 0.1284463 0.03457943 -0.05804122 0.032753646 -0.014591733
-0.02631376 0.01469581 0.020245647 0.0369549 -0.011701795 0.009369168 -0.07325936 -0.097295135
-0.0011639239 -0.032637466 0.075833425 0.01308132 -0.08114187 -0.049188264 0.038677666 0.030558063
-0.049643725 0.00485707 -0.044443153 -0.00069853046 0.0047629112 -0.050267737 0.013211988 -0.10209932
0.025437266 -0.05239974 0.037806604 0.0039497665 0.0022648484 -0.012703707 -0.02729339 0.039021574
0.034916602 0.01509872 0.04102842 0.028628174 -0.012436512 -0.026234698 -0.05541451 -0.09259728
-0.12888063 0.048539262 -0.087264925 -0.011856101 -0.013346525 -0.04858708 -0.0015918607 -0.050518416
-0.09978469 -0.067375116 -0.051301245 -0.007142538 -0.03916937 -0.008738744 0.031156523 0.013491457
-0.0429609 0.068248026 0.026997767 0.00056335476 -0.04488765 -0.050214164 -0.006063064 0.021512246
0.056441806 0.052269526 0.007979593 0.0664967 -0.071518816 0.003687984 0.012628377 -0.05792817
-0.031445604 0.03048951 -0.057594415 -0.04389862 -0.046174504 -0.025659762 0.0031776412 -0.10638431
-0.038324907 -0.021353338 -0.027479809 0.053434994 -0.04863681 -0.0535537 -0.020611154 0.06630376
0.022606734 -0.0022590435 -0.031724818 0.09685576 -0.008197608 -0.08651301 -0.05195723 -0.0024194801
0.061644237 -0.06999102 0.026831428 -0.027393093 0.09566516 -0.020892434 -0.028359313 -0.06862826
0.010367975 -0.013749781 -0.012499999 -0.010615434 -0.013802786 0.004457193 0.027120117 -0.0070595555
-0.05390135 0.012655409 -0.018004153 0.045291863 0.007916888 0.0658991 -0.040889397 -0.018484516
-0.0027333878 -0.0016028542 0.05757557 -0.020519348 0.06084325 0.054559384 0.07036605 0.0018436579
-0.022842444 -0.037930157 0.0073588765 -0.01913893 0.02187034 -0.005401112 -0.048472077 0.07910663
0.033521067 -0.06040989 -0.042817615 -0.056108143 -0.02108219 -0.04595399 -0.008808343 0.08892025
0.007708895 -0.009148287 -0.016260678 0.037243154 0.036056295 -0.102200136 -0.035647895 0.07439908
0.014489146 0.020263927 0.016898166 -0.04939276 0.01059478 0.017118635 -0.058096968 -0.08658927
0.06448675 0.013640698 0.05503504 -0.0142148305 -0.030274732 0.07936975 -0.1005926 -0.057821978
-0.0013837718 0.007670161 -0.07132557 0.011866528 0.04155047 -0.05025769 -0.00026675744 0.05701009
0.062386215 -0.08911044 -0.013455731 0.028304989 -0.0028763835 -0.06704254 -0.0076510967 0.012474189
0.026863333 -0.01882097 0.064125165 0.04964188 -0.07287485 -0.024197085 0.09809938 0.09063791
0.01344076 -0.07842652 -0.03901157 0.011594993 -0.034852043 -0.066980414 0.13429865 -0.010164296
-0.046819795 0.0111476155 -0.005761047 -0.026920937 0.045216575 0.021129025 0.042177066 -0.023703728
0.05210194 -0.0693595 0.029109864 0.02355179 -0.025233606 0.022915224 -0.05208326 -0.017455552

std.constant5 f4 [128, 128]
00000000: 9497 f7be 0a88 22bd 746e 743d 4659 bbbd
00000010: 4644 913d e454 ea3d d4d6 333b 468f 30be
00000020: 3375 12be d935 1e3e 16dc 083d a282 1e3e
00000030: d74a b23e bcde 743e 2f88 e93c b8ac f03d
00000040: 8f8e d53c 3d25 79bd f6fb 74be f054 23bd
00000050: 3bad 5fbd e859 4cbe 16b2 83bd a321 fe3d
00000060: 9161 273c 9f1f b9bd b1a2 46bd 8176 d13c
00000070: 7be9 25be 8ebd d5bd eecf 723e bae2 b0bb
00000080: c717 8a3c f688 c03d 89f3 68bd e8a1 433e
00000090: a7ff 403d 739e 69bd 712c 85bc 3d8a 69bd
000000a0: ddd9 3abd 2304 6dbc 1f26 2a3e cb84 50be
000000b0: 9c01 083f 1fcd 923d 4c94 253e decc f63b
000000c0: c00f c93e 9900 0bbc e292 dabe fe74 4c3b
000000d0: ef5a 8cbd 0d81 c73e e098 e5bd 6859 ccbd
000000e0: 640f 55bd 2580 073e 8816 e4bc 6dab e8bc
000000f0: 1b32 463e fdfd 413d d232 d2bb 950c 683d
00000100: def6 cabd b87b 053e 7272 973e 88b2 d7bd
00000110: 42e6 30bd 0c4b e0bd 6017 943a 2c66 ce3c
00000120: 89b9 843d 6669 933c 3abe 833d c1dc 173d
00000130: 9a80 8b3d 708f bfbc db23 853e a85f aebd
00000140: ecc8 883d f591 3fbe f227 e8bd c862 4bbd
00000150: 6165 6bbc 2c9d bdbd 4f66 ed3d 7df5 fcbd
00000160: 984c 0dbe 8417 20be fd66 4e3d 2670 a6bc
00000170: 3d67 9fbc 6345 39be 7b29 58be d6b7 8f3d
00000180: dea9 0cbd 9a7e 7a3e 10c0 163e 9340 65bd
00000190: 44dc 9e3d 9347 35be 64d0 393e 0ee7 34bc
000001a0: 2c82 0b3d c113 dcbd 8e2c 983d a879 333d
000001b0: 9555 dabd 3298 20be df81 aa3d 66f8 fcbd
000001c0: 4b35 47be 1d16 edbd a6fc d53c 31a7 8ebe
000001d0: 2373 1d3e daef 193a d9e4 ae3d 4998 b6bb
000001e0: a348 9f3d 81d0 06be 4d25 dc3c 3852 063c
000001f0: 9862 933d f7e6 a53d b3b4 0bbe a61e 02bc
00000200: 2f8a 8fbe ca30 36bf df7e 893c 8227 84bd
00000210: 12e2 3f3e d03e e5bd 2b35 f53c ec77 d23d
00000220: b260 1b3c bf49 283e a403 a9bd 20db 4dbe
00000230: 4a5d 2bbd e00b b5bc ab2e 833d 6478 49bd
00000240: d58f d93c 7e33 5a3e c680 b93e d446 49bd
00000250: 810c d73d 3e40 583c 5309 253e 9f47 e9bc
00000260: 68ce 053d c530 28be c50b 593e 9cfa 2e3d
00000270: cb83 1c3e 96e0 91bd 7f14 d3bc 27d7 29be
00000280: c843 e3bd 22bc 373e 1337 04be de54 893d
00000290: 080c 163e 7cfb 07be 6784 50be 1e4c e6bd
000002a0: 18b6 473e d330 99bd fcd6 fa3a 7828 02bd
000002b0: e299 c63d 2e7e 193d 8c10 a9bd 44b6 a73d
000002c0: d595 9b3d 6bd2 77bc 4a95 e3bc debe 923d
000002d0: b5d9 9c3d aabc ab3d d856 a63e a0a0 073e
000002e0: c3c4 2fbe 3690 95be ad37 9cbc 609f f2bc
000002f0: 8fa4 5e3c 2577 453c 935c 953d 1f8f 04bd
00000300: 88fc c4bd edee 403d 9ecc f9bd 1225 9abe
00000310: bb45 63bd 7664 4b3d bb34 343d f113 093d
00000320: ff14 cabd 2dc1 0abe 18ec 09be a268 033e
00000330: 6222 b6bd aec6 aa3b 7629 c0bd 54b5 e93c
00000340: 782e 2cbe 8149 ac3b c588 693d 7a72 6f3e
00000350: f777 9d3c 55bf 233e b1a0 033e 495a 853d
00000360: c12e 60bd 194c 2bbd 84ce debd 89c3 a03d
00000370: 9fb8 c73d 2972 ed3d 03c0 423e f319 e8bd
00000380: 6c41 15be 42ad 9e3d b16c e1bc 3132 983d
00000390: c7ef 96be 18d2 0b3d 4dc8 1ebe 9e0f e7bd
000003a0: 1370 f0bd d342 593e 2fe8 cfbd 701c 8f3d
000003b0: d93c 56be 156e 5a3e 650b 9dbc 65f2 993d
000003c0: 6646 d03d a681 293e 0868 7b3c 5b11 f9bd
000003d0: e41b 7b3c e600 2e3e 90b3 123c 4f23 423e
000003e0: b18d 63bc 0907 6abe 30d8 4cbe d33a 54bd
000003f0: 399e ad3d b84f da3b d98e 853d bea8 d8bd
-0.48357832 -0.03968052 0.05967565 -0.09147887 0.070931 0.11441973 0.002744128 -0.17242154
-0.1430252 0.15450229 0.033413015 0.1547952 0.34822723 0.23913091 0.02850732 0.117516935
0.026068954 -0.06082653 -0.2392424 -0.039875925 -0.054608565 -0.19956172 -0.064304516 0.124087594
0.010216133 -0.09039234 -0.048495 0.025569202 -0.16202347 -0.10436545 0.23712131 -0.0053981217
0.016857041 0.09401123 -0.05687288 0.19104731 0.04711881 -0.057035875 -0.016256543 -0.0570166
-0.045617927 -0.014466318 0.16616105 -0.20363156 0.53127456 0.0716803 0.16169852 0.0075317463
0.3926983 -0.008484029 -0.42690188 0.0031197662 -0.06853282 0.38965645 -0.11210799 -0.099779904
-0.05201663 0.13232477 -0.027842775 -0.028402055 0.19355051 0.047361363 -0.0064147497 0.056652624
-0.099103674 0.13035476 0.29579502 -0.10532099 -0.04318834 -0.10951814 0.001129847 0.025195204
0.064807005 0.017994594 0.06432767 0.03707576 0.06811638 -0.023383826 0.26003918 -0.08514339
0.06678948 -0.18708022 -0.11335744 -0.049654752 -0.014367432 -0.09258494 0.115917794 -0.12351511
-0.1379875 -0.1563397 0.050391186 -0.020317148 -0.019458408 -0.18092875 -0.21109574 0.07017486
-0.034341685 0.24462357 0.14721704 -0.055969786 0.07756856 -0.17703085 0.18145901 -0.011041416
0.03405969 -0.10745955 0.07430373 0.043817192 -0.10660855 -0.15683058 0.08325552 -0.12352066
-0.19453923 -0.115764834 0.026121449 -0.27861932 0.15375952 0.00058722275 0.08539743 -0.005572353
0.07777526 -0.13165475 0.026873255 0.008198313 0.0719654 0.08100694 -0.1364315 -0.0079418775
-0.28035113 -0.71168196 0.01678413 -0.06452848 0.18738583 -0.11193621 0.029932579 0.102767795
0.009483503 0.16434382 -0.082526475 -0.20103121 -0.041837014 -0.022100389 0.064053856 -0.04918708
0.026557842 0.21308705 0.3623106 -0.049139813 0.10500432 0.01319891 0.16116838 -0.028476534
0.032667547 -0.16424854 0.21195896 0.04271947 0.1528465 -0.071229145 -0.02576661 -0.1658598
-0.110969126 0.1794286 -0.12911634 0.0670564 0.14653027 -0.13279527 -0.20363007 -0.11244987
0.19503057 -0.074800156 0.0019137557 -0.031776875 0.096973196 0.03747385 -0.08255109 0.08189061
0.075969376 -0.015125851 -0.027781148 0.07165311 0.07658712 0.08385594 0.32488132 0.13244867
-0.17164902 -0.29211587 -0.019069517 -0.029617012 0.0135890385 0.012052332 0.07293048 -0.032363053
-0.09618479 0.047102857 -0.12197231 -0.30106407 -0.055486422 0.049656354 0.0439956 0.033466283
-0.09867286 -0.13550253 -0.13468969 0.12832883 -0.08893277 0.0052116727 -0.09382908 0.028528847
-0.16814601 0.005257786 0.0570152 0.23383513 0.019222243 0.15990956 0.12854268 0.06511361
-0.054732088 -0.04182062 -0.108792335 0.07849795 0.097520106 0.1159404 0.19018559 -0.113330744
-0.14575738 0.0774789 -0.027517648 0.07431448 -0.2947981 0.034135908 -0.15506096 -0.112822756
-0.117401265 0.21216898 -0.101517074 0.06987846 -0.20921649 0.21331055 -0.019170472 0.07516936
0.101696774 0.16553363 0.015344627 -0.121615134 0.015326474 0.1699253 0.008953944 0.18958782
-0.013888762 -0.22854246 -0.20004344 -0.05181391 0.08477444 0.0066623352 0.06521387 -0.1057906

std.constant6 f4 [128, 128]
00000000: 1113 743d 6c01 49bc d779 04bd c46d 843d
00000010: 6664 363c 8097 a23b 52cc 153b b555 a5bd
00000020: 2aa5 803c 35c1 c9bd 92aa 02be ab53 8b3d
00000030: d29c 9ebd 563b 083e b390 233d d3fe 7a3c
00000040: 854f 3b3c 3201 1b3d 19c1 e5bc dbb2 2dbe
00000050: 9f49 05bd 3832 793d 0959 4abd dd54 383d
00000060: 5e58 38bd 97ef 493d ec25 b2bc 0c00 e2bc
00000070: f467 cf3d 44e5 4a3a 8c82 fd3c 55fc 0c3d
00000080: 02e0 66bb 05d2 9a3d 4dab 063c c497 a6bb
00000090: 5178 543c a877 8dbd d979 33bc e4d2 adbd
000000a0: 1ae2 4a3d c6fb 4dbb 4d56 b0bc cc74 8abb
000000b0: 7f45 1f3c 222d 88ba 56be 0b3d 94a0 fabd
000000c0: d2c9 bebc 5cf1 4dbd ae76 9b3d 80e7 f5bc
000000d0: aef6 92be 8813 8abc 5815 903c e658 fcbd
000000e0: a754 2abd e31f 18bd 0e8d e73d 4e74 20bb
000000f0: 9826 94bc ed7f 263d 5c5c 8d3c 3cae e23b
00000100: 5490 c1bb 8e13 47bc 2e42 b63c 46b2 6a3d
00000110: 358c 15bd 5665 93bd f93f e43c 5644 c1bd
00000120: 37d7 683c e76a c33c 6ec7 b23c 98b2 90bc
00000130: db51 563c 8b20 e1bb ee35 2fbb 8f43 bc3c
00000140: 3ea6 01be 7c3a 3d3d beb3 29be 04d6 8cbd
00000150: ccb4 6f3b 33da 093d 5e4c ed3c 32cd 22be
00000160: 783f 62bd 9be9 6bbd 0ffd 63bb bbcf 17bd
00000170: b88e 6cbd a297 a1bd 55ba b1bc 70eb 45bd
00000180: d66f ffbd f080 d13d 4bab a4bb a9ef 37bd
00000190: f6e2 9f3c 1107 58bd 37bf 31bd 00d2 9d3d
000001a0: 9195 1e3d 2019 2b3d ee6c b6bb 008a aebb
000001b0: fdb1 90bd c528 afbc 675b 1ebd f596 5cbd
000001c0: f7cc 903b d1f9 ed3c 8804 19bb b820 cd3d
000001d0: 38f6 013d f477 b23c 697c 33bd 8cb6 7ebe
000001e0: 80b8 653d 4c84 49bd 1a0f f13b 2bf6 bd3c
000001f0: a1f4 043d e8a0 02ba 1c06 16be 7a90 80bd
00000200: 80eb 053c 7693 bfbc 90c5 333c 951f 953c
00000210: 8108 6bbc 75c3 c3bc 64ed 153d 5c1f 033d
00000220: 9075 e1bb c46b 953b bc42 4bbc c159 883d
00000230: 4cb2 65bd 4ea2 fe3c c742 17bc b4a5 303b
00000240: cb38 0bbd 9e52 a83c 990a 453d e067 6e3c
00000250: 17ce e03c 9dd2 9b3d 0499 82bb 34cd 163c
00000260: 5bf7 f6bc 5248 683d 3c90 2a3d 82cc 3b3d
00000270: d8bc 6c3d bafd 313d ffcb a23c aa7b 76bd
00000280: 5ef0 31bd a979 a6bb a07a d13c 0838 ac3c
00000290: d37e 88bc aafb e33b 49de 04bd 7cbc 2d3d
000002a0: 0193 343a 9426 d23d 090e 413d 43a8 f3b8
000002b0: 10c9 233c cb7e 5cbd a19a 3abc 76c4 ce3c
000002c0: aac1 933d c061 ddbd 58c9 813d c9ba dcbc
000002d0: 22fd 5cbb cac9 cdbc dbef 94bd f40a 233c
000002e0: 867e 14bd 5ebf fcbc 4e91 a83b 140d 16bc
000002f0: f1b9 803c bcf6 0bbc 7664 b33c 7b6a 62bd
00000300: c9a3 e3bc c878 0dbd 88d8 98bc ac27 a8bb
00000310: 9100 233d 6386 883d f6a1 7dbd 2bc9 b5bc
00000320: 7d59 ff3c 308f 29bd 09b0 5b3c 754c 113c
00000330: 4ced 08bd d80a 433d 15f8 5dbd de5c c23c
00000340: b911 9ebd 0104 a13a a185 00bd 4fcc 12bd
00000350: 2d8e 5c3d 2ccc 843d dbe5 5c3d d96e 08bc
00000360: 86a3 47bd a911 513c 614e c73c 90c7 31bd
00000370: 697d a43b c4fc 0fbd cf88 4abc b5a3 c63c
00000380: 6d7b f7bc f498 10bb dfee 0dbb 2c69 8b3a
00000390: 6433 c1bb d489 ddbd 826b 663c 88f6 fc3d
000003a0: 5bd7 9abd e22e abba 9c2a e63c 5c8a 75bc
000003b0: 514a a8bd 487d 9cbd dc73 f4bd e4af 653d
000003c0: faee ab3d 916b a738 228f f33c c2ee 61bd
000003d0: 8f29 163c 194e 643c 93af 3d3c 6893 9dbd
000003e0: 42c5 2fbd 5b86 07bd 7c7a 9e3c 0000 923d
000003f0: ca79 84bd b5b4 1b3c 0397 803a 0375 363c
0.059588496 -0.012268405 -0.032342758 0.06466249 0.011132335 0.004961908 0.002285738 -0.08072988
0.015703756 -0.098513044 -0.1276038 0.06803068 -0.07744755 0.13303885 0.039932918 0.015319544
0.011432533 0.037842937 -0.028046178 -0.16962759 -0.032540914 0.060838908 -0.049401317 0.045002807
-0.04500615 0.049300756 -0.021746598 -0.027587913 0.10127249 0.0007739852 0.030946039 0.03442033
-0.0035228734 0.07559589 0.008219552 -0.00508401 0.012968139 -0.06907588 -0.010954344 -0.0848749
0.049532034 -0.0031430586 -0.021525526 -0.004225349 0.009721159 -0.0010389427 0.034117065 -0.12237659
-0.023289595 -0.050279006 0.07590996 -0.030017614 -0.28703827 -0.016855016 0.017588302 -0.123216435
-0.041584637 -0.037139785 0.11306201 -0.0024483385 -0.01808481 0.040649343 0.017255954 0.006917743
-0.005907098 -0.012150658 0.022248354 0.05729892 -0.036510665 -0.07197063 0.027862536 -0.09436862
0.0142114675 0.023854686 0.021823611 -0.017663285 0.013081039 -0.0068703345 -0.0026735025 0.022981433
-0.12661073 0.046198353 -0.16572472 -0.06876758 0.003657627 0.033655357 0.028967079 -0.15898588
-0.05523631 -0.05759583 -0.0034788286 -0.03706334 -0.057753295 -0.0789025 -0.021695295 -0.048320234
-0.12472503 0.10229671 -0.0050253025 -0.044906292 0.019517403 -0.052741114 -0.043395247 0.0770607
0.038716856 0.041772008 -0.0055671846 -0.0053265095 -0.070651986 -0.021381745 -0.038661387 -0.0538549
0.004418965 0.029049786 -0.0023348648 0.10016006 0.031728953 0.021785714 -0.04381982 -0.24874324
0.056084156 -0.049198434 0.0073565366 0.023188671 0.03245986 -0.00049830833 -0.14650768 -0.06277557
0.008173823 -0.023385745 0.010972396 0.018203536 -0.014345289 -0.023896912 0.036603346 0.03201233
-0.0068804696 0.004559966 -0.012406047 0.06657744 -0.05607824 0.031083252 -0.00923223 0.0026954236
-0.03398971 0.020547207 0.04810581 0.014551133 0.027442021 0.07608531 -0.003985526 0.009204198
-0.030147245 0.056709595 0.04164146 0.04584933 0.057797283 0.043454863 0.019872664 -0.06017653
-0.043442123 -0.005080421 0.025571167 0.021022812 -0.016662037 0.006957491 -0.03243855 0.04241608
0.00068883604 0.102612644 0.047132526 -0.00011618484 0.0099966675 -0.053831857 -0.0113894055 0.025240164
0.07214673 -0.1080966 0.063372314 -0.026944535 -0.0033720215 -0.025120635 -0.07272311 0.009951342
-0.036253475 -0.03085297 0.005144275 -0.0091583915 0.015713664 -0.008542713 0.02189849 -0.05527733
-0.02778806 -0.034539014 -0.018657938 -0.0051316824 0.039795462 0.06666257 -0.061922036 -0.02219065
0.031170601 -0.04139632 0.013408669 0.008868326 -0.03342943 0.047617763 -0.054191668 0.023725923
-0.07718224 0.0012284518 -0.03137744 -0.035839375 0.053846527 0.06484255 0.053930145 -0.008327209
-0.048739932 0.012760558 0.024329366 -0.04340321 0.005019833 -0.035153165 -0.012361719 0.024247983
-0.030210221 -0.0022063823 -0.002165727 0.0010636202 -0.005896019 -0.10817304 0.014063718 0.123517096
-0.07560607 -0.0013060237 0.02809649 -0.014986601 -0.082173 -0.07641083 -0.11936161 0.056075945
0.083951905 7.983216e-05 0.029731337 -0.055159338 0.009165182 0.013934636 0.011577505 -0.07694131
-0.04291273 -0.033087116 0.019345514 0.07128906 -0.06468542 0.009503533 0.000981063 0.011136296

std.constant7 f4 [128]
00000000: cc30 75be 3c73 6fbf 3371 80bf 89f8 4cbf
00000010: fa0a 46bf d9d6 67bf 4819 15bf 6208 d4be
00000020: fddd cabe 06a1 62bf 2bd6 953b 3f23 74bf
00000030: 7640 9b3e de27 173d 010f aabf 1d29 22bf
00000040: 2810 3cbf 23f4 e5bc fb38 043e a591 11be
00000050: 6e4f 77bf 83c9 1fbe 0732 2fbf ae29 10bf
00000060: c17d 8cbf d423 53bf f63b 9bbd fbe8 6abf
00000070: 5c4e b43d 9e43 7ebf 0c39 223c 90a8 4dbf
00000080: 3799 33be c776 a0bf d83a 4fbf 56c9 08bf
00000090: a505 8abf e1b3 01bf 2638 cfbe 527d 83bf
000000a0: bfd4 2fbf ad89 3ebf 2e99 42bf 9e7d 00bf
000000b0: f80f 773e fa7a 58bf efed 14be 4dcc f6bd
000000c0: e687 21be d18f 7cbf f525 ac3d 39f7 5dbf
000000d0: b980 a03b 2c7b 063e ba53 963d d01b 30bc
000000e0: f65a 0fbf e92c 723d 4bdf abbf 7543 41bf
000000f0: 6504 debe 0edc 81bf 4b5b 6dbe c601 833c
00000100: 1d55 02bf 8d4a 33bf 2167 1fbd e9e0 19be
00000110: 9b0a b0be a7ac 44bf 4997 68bf debb 86bf
00000120: 201f 53bf f027 62be c426 c7bd cfca 40bf
00000130: 8197 97bf cfb6 86bf c11c 9bbe d794 bcbe
00000140: dfb2 91bd 5a97 2bbe 9c5a 19bd 7c19 c23d
00000150: d19a 97bf e8e4 4dbf 07d6 52bf e431 ecbd
00000160: 5afd a1be dfcb a4bd acc3 65bf c665 35bf
00000170: 1792 0abf 937e 75bf 499a 953e 2ff7 6abf
00000180: 0279 76be af28 17bf 83c4 ebbe 6010 74bf
00000190: ddd0 433e 0459 febe e19d 153e 754d d1bd
000001a0: b420 12be f86c f73a c911 8dbf 599b 48bf
000001b0: 198b 84bf de6e b0bc 36c1 13bf 6bb1 0fbf
000001c0: 59ca 9abd ee29 02bf bda4 86bf d713 89be
000001d0: 3535 d6be b891 89bf ef21 38bf 6b27 36bc
000001e0: 7881 08be 1f31 f6be bdd8 3abf 7273 28bf
000001f0: 0bae 69bf 5d43 54bf e65f 61be 8f62 57bf
-0.23944396 -0.9353521 -1.0034546 -0.80066735 -0.773605 -0.90562207 -0.582417 -0.41412646
-0.3962249 -0.8852695 0.00457265 -0.9536628 0.30322617 0.036903255 -1.3285829 -0.63343984
-0.7346215 -0.028070515 0.12912361 -0.14215715 -0.96605575 -0.15604214 -0.6843571 -0.563136
-1.0975877 -0.82476544 -0.07579796 -0.9176175 0.08804008 -0.99321926 0.009901296 -0.8033533
-0.17538916 -1.2536248 -0.80949163 -0.53432214 -1.0782973 -0.506651 -0.40472525 -1.027262
-0.68684 -0.74428827 -0.76014984 -0.50191677 0.24127185 -0.8456265 -0.1454389 -0.12050686
-0.15774497 -0.98656946 0.08405677 -0.86705357 0.0048981574 0.13132924 0.07340188 -0.0107488185
-0.5599817 0.05912486 -1.3427519 -0.75493556 -0.43362728 -1.014528 -0.23179357 0.015992057
-0.5091112 -0.7003563 -0.03891671 -0.15027203 -0.3438309 -0.76825947 -0.9085584 -1.0526083
-0.8246937 -0.22085547 -0.09724191 -0.7530946 -1.184311 -1.0524539 -0.30295375 -0.36832306
-0.07114195 -0.16756955 -0.037439927 0.09477517 -1.1844121 -0.8042741 -0.8235783 -0.115329534
-0.31638604 -0.08046698 -0.89751697 -0.7085842 -0.54129165 -0.9589626 0.29219273 -0.9178342
-0.24069598 -0.59046453 -0.46048364 -0.95337486 0.19122644 -0.4967729 0.14611007 -0.10219852
-0.14270288 0.001887708 -1.1021053 -0.7836204 -1.0354949 -0.02153724 -0.5771669 -0.56130093
-0.07558126 -0.5084523 -1.0519024 -0.2677295 -0.4183747 -1.0747595 -0.7192678 -0.011117796
-0.13330638 -0.4808435 -0.72986966 -0.65801156 -0.91281193 -0.8291529 -0.22009239 -0.84134763

std.constant8 f4 [128]
00000000: 79c8 033f c7bf 22bd 96d3 803d c233 903e
00000010: de98 0c3e d1ad 0a3e 2ba0 b43e 234b 853e
00000020: 4221 063f 007b 6bbd b4f5 593f d6ab bebd
00000030: 6c0f 2a3f 7eeb 833f 6eab 0dbe f795 ab3e
00000040: 770e 003e c92c ec3e 5cf3 503f 28b2 6e3f
00000050: 5b6c 143c cdab 463f 95bb 55bd 12b6 9a3e
00000060: b5b2 e0bb 399a 923d 16cf f13e c135 733d
00000070: 4023 493f 9b12 14bd fa52 723f ce64 ba3d
00000080: 21b7 813f 6635 18be e711 8e3d fc73 af3e
00000090: f7be 653d b2b2 d53d 077a d33e 725f f4bd
000000a0: 366c 1b3e 33eb 273e 2468 05bd 84b1 af3d
000000b0: fd18 4c3f 7da3 253e 29ed 0b3f 39cd 803f
000000c0: 5f7e 743e 409d 043e f644 503f 05d8 4e3e
000000d0: 437f 933f 886c 443f 8d1b 473f 55c8 8f3f
000000e0: 5c69 713e 0789 5c3f 04fa dabd ddd4 793e
000000f0: 1f7c e03e 28e2 bbbc 329d d73e d9a5 533f
00000100: 7d4f 833e a754 db3d a69f 603f 5582 f03e
00000110: 4b4c e83e 2d1c 323e 318e b63d 8624 b3bd
00000120: adbe d0bc 868c 3d3e 7e85 583f 7566 a23e
00000130: 6d94 14be f17a 10bb 0c70 0d3f cbca 293f
00000140: ed12 1f3f 7bc4 703f ba44 8f3f 714e 643f
00000150: ed44 d5bd 0a62 2e3e 15e6 0e3d 34ce 783f
00000160: 8139 5d3f 6d2e 7e3f 89a9 57bc d4b6 d03d
00000170: ac2a e13d 8b23 e3bd 9cf8 dd3e dde7 093e
00000180: da31 ea3e a5b6 e63e b374 a63d f21e 8a3d
00000190: 1f12 533f 6d62 163f 4169 693f 85d4 853f
000001a0: 22e3 793f a8e5 663f c734 ccbc 73f6 433e
000001b0: bf5f 4abd 3ab3 1d3f 2b83 103e 8e50 dc3e
000001c0: 2536 623f 7643 bc3e 83e2 40bd f9ee fa3e
000001d0: ba58 cd3e 088b 12bd 22c5 97bc 3217 903f
000001e0: 5c6b 783f 3345 af3e dcd6 153d 6115 923e
000001f0: 3572 0e3e 9a84 293e 2e12 573f 1caf d33d
0.5147777 -0.039733674 0.06290357 0.28164488 0.13730189 0.13542868 0.35278448 0.26033887
0.523945 -0.05749035 0.8514054 -0.09310119 0.6642978 1.0306242 -0.13834926 0.33512852
0.12505518 0.46127918 0.81621337 0.93240595 0.009059037 0.776059 -0.052180845 0.30217034
-0.006857241 0.07158322 0.47228307 0.059377436 0.7856941 -0.036150556 0.9465786 0.09101258
1.0134012 -0.1486412 0.06937008 0.34268177 0.05609032 0.10434474 0.41304037 -0.11932267
0.15177998 0.16398315 -0.03257002 0.0857878 0.7972563 0.16175647 0.5465875 1.0062629
0.23876332 0.12950611 0.81355226 0.20199592 1.1523212 0.76728106 0.77776414 1.1233011
0.23575348 0.8614659 -0.10692218 0.24397607 0.43844697 -0.022934988 0.42112118 0.8267494
0.25646582 0.107095055 0.87743604 0.46974435 0.45370707 0.1739356 0.089138396 -0.08747201
-0.025481546 0.18510637 0.8457869 0.31718794 -0.14509745 -0.0022045935 0.55249095 0.6632506
0.62138253 0.94049805 1.1192849 0.8918219 -0.10413537 0.17029586 0.034887392 0.9718964
0.8641587 0.9928959 -0.013162979 0.10191122 0.10994467 -0.11090764 0.43353736 0.13467355
0.4574116 0.45061222 0.08127727 0.067441836 0.82449526 0.58743936 0.9117623 1.0455481
0.976122 0.9019418 -0.02492751 0.19136982 -0.049407717 0.61601603 0.14112537 0.43030208
0.8836387 0.3677022 -0.04709102 0.49010447 0.40106755 -0.03577712 -0.018526617 1.1257079
0.9703882 0.34232482 0.03658186 0.28531936 0.13910754 0.1655449 0.84012115 0.10336134

std.constant9 f4 [128]
00000000: 8dca e9bb e679 0ebb 0838 9db8 e168 843a
00000010: b220 4c3b f5e9 b9bb bcfa b53b 0e44 163c
00000020: ef78 da3b 9adc 1bbb d872 94bb b952 b3bb
00000030: 7230 10bc c9c3 d8bb 79f0 613b 8ee5 b4bb
00000040: 0d26 9dba 93eb 023c 19b5 273c 364c e23b
00000050: d208 f63a 71f8 e73b 0a96 083b c43f 04bc
00000060: 3109 a4bb 801a 35bb 9ed2 003c c368 c73a
00000070: d08c 1f3c fba6 73bb 3166 bdbb 8f91 07bb
00000080: d27f 7b3b 0d59 463b 4000 a0bb 4254 bdbb
00000090: 2b4e 54bb 4a69 d13a 5773 fabb 90da 35bb
000000a0: e399 893b 23b2 cbba 8586 0fbb 1296 303b
000000b0: dbe6 e5bb 9d53 753b b5e5 f4bb 0052 2f3c
000000c0: 383e 11bc 0190 6dbb 61f9 953b 5d83 c93b
000000d0: c0a8 c63b 8c64 83bb c830 f33b ddf9 803a
000000e0: 00d0 45bb 53ed c1bb f712 dbb8 c653 f83b
000000f0: b26b 93bb 25dc 613b f2d2 bf3b e416 d2bb
00000100: dea5 95bb 7c58 ecba d5e2 3bbb 8065 e5bb
00000110: 3451 16bb 89b2 da3b f718 b1ba 477a 5abb
00000120: 5b4c e7ba 9332 d8b9 e182 55bb 184c c8bb
00000130: da67 00ba b5ea 84ba ced6 29bc 1da2 843b
00000140: 78d3 e8bb b519 973a 3dda 273b ab41 9f3b
00000150: 7759 a8b9 2ab7 6e3a c2b2 0bbb 93c2 553b
00000160: db59 5a3b 149e b03b 1071 79bb 62ec 8d3b
00000170: 4de3 a73b d2ec 8d3b 167a 213c c984 10bb
00000180: 6ebf 01bc 8006 e4bb de9e 973b fdcd fdba
00000190: eb92 07bc 729f b73b 18be acbb 54fa 42bb
000001a0: 0236 6dbb 870f 7d3b b783 1d3a 0fe4 9f3b
000001b0: ed91 e6ba 692e ce3b 3cdc 6c3a 3690 ab3b
000001c0: 7278 323b 4f6e 673b 0f80 473b 3216 e03b
000001d0: e21e 57bb 0970 e83a 6f14 bebb 43d3 0e3b
000001e0: f3ea 6abb c5db 023c 2acc 8dbb b2f7 ed3b
000001f0: ad49 383a 7b15 b3bb 3099 e73b 2219 84bb
-0.0071347416 -0.0021740138 -7.49678e-05 0.0010102057 0.0031147418 -0.005673642 0.0055535715 0.009171499
0.0066672484 -0.0023782612 -0.004530292 -0.005472508 -0.008800613 -0.0066151363 0.0034475608 -0.005520529
-0.001198949 0.007990736 0.010236048 0.0069060577 0.0018770939 0.007079177 0.0020841383 -0.008071844
-0.0050059785 -0.0027634203 0.007862715 0.0015213717 0.009738162 -0.0037178386 -0.0057800044 -0.0020686125
0.0038375747 0.003026548 -0.0048828423 -0.0057778666 -0.0032395225 0.0015976813 -0.007643144 -0.0027748682
0.004199253 -0.001554076 -0.0021900248 0.0026944918 -0.0070160455 0.003743387 -0.0074736723 0.010700703
-0.008864932 -0.0036249163 0.0045768474 0.006149693 0.006062597 -0.004009789 0.0074215867 0.000984009
-0.0030183792 -0.005918184 -0.00010446266 0.007578346 -0.0044989223 0.0034463492 0.005854004 -0.00641142
-0.004566892 -0.0018031741 -0.0028669138 -0.007000625 -0.0022936584 0.006674115 -0.0013511468 -0.0033337043
-0.0017646657 -0.0004123641 -0.003257923 -0.0061125867 -0.00048982876 -0.0010140749 -0.010366155 0.0040476457
-0.007105287 0.0011528047 0.0025612258 0.004860123 -0.00032110114 0.0009106273 -0.0021316265 0.0032617196
0.0033317718 0.005389938 -0.0038061775 0.0043311575 0.005123532 0.0043312097 0.009855768 -0.0022051802
-0.007919176 -0.0069587827 0.0046270927 -0.0019363757 -0.008274774 0.005603724 -0.0052716844 -0.0029751258
-0.0036195521 0.0038613991 0.0006008702 0.0048794816 -0.0017591097 0.0062921536 0.0009035503 0.005235697
0.0027232436 0.0035313552 0.003044132 0.0068385834 -0.0032824804 0.0017733584 -0.0058007757 0.0021793402
-0.0035845607 0.007986967 -0.004327317 0.0072621936 0.00070300215 -0.005465207 0.007067822 -0.0040313164

std.constant10 f4 [128]
00000000: 0016 70be bb0e 75bf 2f9b 74bf 0de8 48bf
00000010: b198 4abf fdaf 66bf 4815 15bf 7929 c9be
00000020: 89f0 cabe f161 5dbf 2ce1 483c 95a4 6ebf
00000030: 9e39 a13e 879c 4f3d 1825 aabf 3e2c 22bf
00000040: eccc 36bf 6823 e5bc e956 093e 7434 d7bd
00000050: 369f 74bf ebf3 20be e6fc 2cbf 6ec9 0bbf
00000060: ff9c 81bf 2345 47bf 6b6f 9dbd 3d13 6cbf
00000070: ebe6 c53d d99a 7dbf d393 873c 9a0b 47bf
00000080: 12ab 50be bfca 8ebf 21bd 4dbf ef93 07bf
00000090: c285 87bf 496d f6be 998b a3be 2459 85bf
000000a0: 1cae 2abf 3d62 37bf a003 43bf 106f febe
000000b0: 7e01 843e 7c7d 58bf 8874 13be 3ea2 fdbd
000000c0: 33a6 1fbe 7e25 7bbf dcf2 ac3d ecd8 54bf
000000d0: 480e f53d e54b 063e 5642 9d3d 3929 b5bc
000000e0: e294 06bf 3c59 953d 9ba3 a9bf ce3e 44bf
000000f0: 040f ddbe aa7a 81bf 6eb2 5ebe 0741 c83c
00000100: ac00 fdbe 7bba 36bf 64f2 c2bc ba83 12be
00000110: fc35 b1be 64fc 44bf d813 62bf 57e5 87bf
00000120: 9f0c 4dbf d2c5 44be 7831 afbd f3f8 3fbf
00000130: cf6a 95bf 2992 85bf 218e 93be 2aa0 c4be
00000140: bea7 8bbd 673d 1ebe 4ad6 20bd 355b f63d
00000150: 7876 94bf 693a 52bf edf6 3cbf 8395 f4bd
00000160: ec19 a3be 2a5c 94bd 4bfe 60bf 8869 35bf
00000170: 932d fabe 61ed 71bf e0b8 9c3e 33dc 58bf
00000180: 2cf6 3fbe 452c 14bf af8c eabe d21d 73bf
00000190: e60e 4b3e fc32 fcbe 068e 233e b205 d6bd
000001a0: 5659 15be 6551 b73c 8c9a 88bf 51ca 44bf
000001b0: 9791 84bf df25 80bc 1085 0dbf b7f2 0dbf
000001c0: abef 98bd e7cc f4be 8e90 7bbf d942 89be
000001d0: a9b7 d2be 01e2 8fbf ca12 35bf d8bf 92bc
000001e0: b60d 0ebe 6e45 eabe 2383 3cbf 99a5 26bf
000001f0: c832 6abf 7972 50bf dcf5 5fbe 5e4b 50bf
-0.23445892 -0.957256 -0.9554929 -0.7847908 -0.7913924 -0.90112287 -0.582356 -0.39289454
-0.3963664 -0.8647757 0.012260716 -0.9321988 0.3148927 0.050686385 -1.329257 -0.6334876
-0.71406436 -0.027970985 0.1341206 -0.105080515 -0.95555437 -0.15718047 -0.6757339 -0.5460423
-1.0126036 -0.7783987 -0.07687267 -0.92216855 0.09663185 -0.99064404 0.01654998 -0.7775208
-0.20377758 -1.1155623 -0.8036671 -0.52960104 -1.0587695 -0.48130253 -0.31942442 -1.0417829
-0.6667192 -0.71634275 -0.76177406 -0.4969411 0.25782388 -0.84566474 -0.14399922 -0.12384461
-0.15590744 -0.98104084 0.08444759 -0.83143497 0.119656146 0.13114889 0.07678668 -0.022114383
-0.5257093 0.07292411 -1.3253053 -0.7665833 -0.4317552 -1.0115559 -0.21747753 0.02444507
-0.49414575 -0.71378297 -0.023797221 -0.14308062 -0.346115 -0.7694762 -0.8831153 -1.0616864
-0.80097383 -0.19216087 -0.08554357 -0.7498924 -1.167322 -1.043523 -0.28819373 -0.38403445
-0.06819104 -0.1545311 -0.039266862 0.12029115 -1.1598654 -0.82120377 -0.7381428 -0.119425796
-0.31855714 -0.072441414 -0.8788802 -0.7086415 -0.48862895 -0.94502836 0.30609798 -0.84711
-0.18746251 -0.5788005 -0.45810458 -0.9496738 0.19829902 -0.49257648 0.15972146 -0.10450305
-0.1458486 0.02237768 -1.0672164 -0.7687121 -1.035693 -0.015643058 -0.5528116 -0.5544848
-0.07467588 -0.47812578 -0.9826745 -0.26808813 -0.41155747 -1.1240846 -0.70731795 -0.017913744
-0.13872418 -0.45756096 -0.736376 -0.6509643 -0.91483736 -0.8142467 -0.21871132 -0.81365

std.constant11 f4 [128, 6]
00000000: f208 0d3c deea ea3b a6b1 fc3d 4e14 bf3d
00000010: 98fa bc3d b0c2 1e3d 0782 a63c 8541 29be
00000020: e9e9 c0bd b6ac a2bd 768c dabd 9481 9abd
00000030: 8ebc 03bd d9c7 7cbd 6bdb a4bd 3092 ce3c
00000040: dae4 cebd c57e 24bc f411 73bd 0094 09be
00000050: 62c4 0bbd b5e8 f2bd b7a8 d3bd a87e 0cbe
00000060: 995b 18bd 6896 0ebe d0cb 0a3d daf0 17be
00000070: f469 49bd a2a6 15be 64c1 a9bd a424 a1bd
00000080: 9333 34bd 04a1 a4bd 5c8c 693b bb57 893d
00000090: 5de2 50bc 55e1 18be f838 c2bd 4306 b13a
000000a0: 720d ccbc 18f9 68bd e3ff dc3d 527f ad3c
000000b0: 1b08 9b3d 86b2 c0bd d271 16bd 4e1a b73d
000000c0: ee7b 1c3c 5b67 523d 87d9 313d 90fb c6bb
000000d0: 9bd2 0a3d 2366 84bd e871 10bd b9fd e93c
000000e0: a89e 493d 913a 50ba 4208 7a3d 98ae e0bc
000000f0: 688e a2be 66af a7be 6d62 78be a184 e9bd
00000100: b1a9 20be ccb6 17be 0689 5cbd 245a a03b
00000110: b6ff 99bd 2414 74bd eecd c03d 7bdc e0bc
00000120: d7c4 733e 97cb 39be 80bf 923d 10b6 f0bc
00000130: 473f 30bd f92e 69be 90ca 10be 94a0 78be
00000140: bf58 f2bd 20cb 3cbe ee39 07bc 150d 4fbd
00000150: a0e5 4abd 7a3a cebd 1178 dc3c 8572 18be
00000160: 1ffe f0bb df3d dfbc f160 ec3c 9b08 c7bd
00000170: 51c6 43bd 9c84 edbd 885b 5c3d 4a04 c2bd
00000180: ab73 46bd 4b3b 873c 0f60 fcbc cf2e afbd
00000190: 5a7b edbd 8cc1 86bd ff72 823e 00aa ba3d
000001a0: a78d a63d d7d2 f93d 0188 4f3d b002 b93d
000001b0: 8181 663d 1048 563e 325a 033e 6209 db3c
000001c0: ee33 ad3c 668d 3cbc 9336 1fbf 7935 31bf
000001d0: d64c 6fbe f693 3abf 749e a5bf 4063 96bf
000001e0: 724f 00be bc93 a4bb b8e7 973d c590 88bc
000001f0: c18e 9bbd 6d14 3abd 8f3e 57be 6a84 8abe
00000200: a326 8abe adf3 6ebe 5cf5 aabe 5652 ecbe
00000210: af32 26bc 7070 ff3c bdc2 b3bd 81c9 68bd
00000220: 887b 763d 66f9 09be a6fa f73c 7b18 e4bb
00000230: 8d4f 79bd be14 edbc 579c aabd 4f44 823d
00000240: 9cb9 67bd 0458 e73c 5bba 553c c7dd 583b
00000250: b129 853d 9fe9 f5bd 1c0f 15be dd21 30bd
00000260: b356 403d 8cfb 053d 86f9 2d3c 738e d33c
00000270: 43a9 953d ebea 9e3e dfaa 433e e2ad 323e
00000280: 79ee 293e 28d7 2e3e e74a 06be d1bb e2bd
00000290: 1250 1ebd 227a 0fbe 4dc2 c5bc 3f9f 23bd
000002a0: 51ab 9dbd 5ecd b3bb aaff 36bd c4da 60be
000002b0: 4263 97be e872 68be 4e36 9f3c 4a20 6a3d
000002c0: 0c8c 03be 9221 103c 5272 bfbc 1093 07be
000002d0: cf01 713d 71c0 6f3d 3877 843e abde f43d
000002e0: bba2 483d 7003 b6bd e9f7 1cbd 482f a4bd
000002f0: e502 943b 8ccf 2b3d 05a0 2fbd 4fb6 51bc
00000300: f9cb 75be 6eb1 b7be 4f60 5bbe f65b aebe
00000310: 5afc d4be d3a6 84be 70fc 0639 4ec2 02be
00000320: cc4a 92bd 72b4 b8bd 31e4 323d 110c a7bd
00000330: 3bb5 54bd 39ac 253d ed0c 1abd e972 aa3c
00000340: de38 233d 08c9 86bd d978 e93b d489 493e
00000350: 9163 48bc 46c0 f4bc 3574 d33c bd67 e53d
00000360: 61d3 d3bd d77b 1fbc 873c 28bc f05e dabd
00000370: 1356 7c3d 055a 71bd 2c04 2bbd ac41 cc3d
00000380: ac4d 99bd 62d2 a23d 7bd4 8cbd 4a63 6a3d
00000390: 11b5 d13b 924a 2e3e 1c29 043e 17ec 2c3e
000003a0: bac2 3d3e 5565 363d 8d08 07be f05b 833d
000003b0: 8a94 1abe 6721 05be 32a3 d1bd 2530 00be
000003c0: 3141 cfbd 0a08 5239 90e6 993d ebbf e7bb
000003d0: 6e02 b4bd 6ae6 433d 3f16 24bd 9447 edbc
000003e0: 2b83 53bc ebd8 b5bd 9def d1bd 9b7b 0b3d
000003f0: 41ce 713b 1586 24be c5c5 85bc a8d1 c8bd
0.00860809 0.0071691116 0.12338571 0.09330045 0.092274845 0.038759887 0.020325674 -0.165289
-0.09419615 -0.07943098 -0.10671322 -0.07544246 -0.03216224 -0.061714027 -0.08049663 0.025216192
-0.10102244 -0.01003999 -0.059343293 -0.13435364 -0.034122832 -0.118607916 -0.10334914 -0.1372019
-0.03719673 -0.13924563 0.033885777 -0.14837971 -0.04917331 -0.14614347 -0.082888395 -0.07868317
-0.043994498 -0.08038524 0.003563664 0.067061864 -0.012749282 -0.14929707 -0.09483522 0.0013505894
-0.024908755 -0.05687818 0.10790994 0.021178875 0.07569905 -0.09409051 -0.03672964 0.08940564
0.0095510315 0.0513681 0.04342034 -0.006072469 0.033892255 -0.064647935 -0.03526488 0.028563367
0.049223572 -0.00079432974 0.06104303 -0.027427003 -0.31749272 -0.32751006 -0.24256296 -0.1140225
-0.15689732 -0.14815825 -0.053841613 0.004893558 -0.07519476 -0.05958952 0.09414278 -0.027448883
0.23805557 -0.1814407 0.07165432 -0.02938369 -0.043029096 -0.22771825 -0.14139771 -0.24280006
-0.11833333 -0.18436861 -0.008253558 -0.050549585 -0.049535394 -0.10069747 0.02691272 -0.14887436
-0.0073545123 -0.027251182 0.028854819 -0.09718438 -0.04779655 -0.11597559 0.05379823 -0.09473474
-0.048450153 0.016507765 -0.030807523 -0.0855385 -0.11595793 -0.06579885 0.2547836 0.09114456
0.08132487 0.12198418 0.050666813 0.09033716 0.05627585 0.20925927 0.12827376 0.026737873
0.021142926 -0.011508321 -0.6219265 -0.6922222 -0.23369154 -0.7288202 -1.2938981 -1.1749039
-0.12530306 -0.005022494 0.07417244 -0.016670594 -0.075955875 -0.045429636 -0.21019958 -0.2705415
-0.26982602 -0.23335142 -0.3339032 -0.46156567 -0.01014392 0.031181544 -0.08777378 -0.056832794
0.060176402 -0.13474044 0.030270886 -0.006960926 -0.06086688 -0.028940555 -0.08330601 0.06360685
-0.056573495 0.028240211 0.013044919 0.0033091174 0.06502093 -0.1200745 -0.14556545 -0.043001045
0.046957683 0.032710597 0.010618573 0.025824761 0.07307675 0.31038603 0.19108151 0.17449144
0.16594876 0.17074263 -0.1311451 -0.110709794 -0.03865058 -0.14011434 -0.024140501 -0.03994679
-0.07698692 -0.005487128 -0.044677414 -0.21958452 -0.29567915 -0.22700083 0.019435074 0.0571597
-0.12846392 0.008797066 -0.023369942 -0.13239694 0.058839615 0.058533136 0.25872207 0.11956533
0.048983317 -0.088873744 -0.038322363 -0.08016831 0.0045169466 0.04194598 -0.042877216 -0.012799813
-0.2400359 -0.35877556 -0.21423458 -0.34054536 -0.4159878 -0.25908527 0.00012873276 -0.12769434
-0.071431726 -0.09018792 0.04367465 -0.08156598 -0.051930647 0.040447447 -0.037609983 0.020806747
0.039849155 -0.065813124 0.007125002 0.19681484 -0.01223077 -0.02987684 0.025812248 0.11201427
-0.10343052 -0.009734116 -0.010268337 -0.10662639 0.061605524 -0.05892374 -0.041752025 0.099734634
-0.07485518 0.079502836 -0.06876465 0.057223596 0.0063997586 0.17020634 0.12906307 0.16886936
0.18531314 0.04453023 -0.13186856 0.0641402 -0.15095726 -0.13001023 -0.10236205 -0.12518366
-0.10119856 0.00020030155 0.075146794 -0.007072439 -0.08789526 0.04782716 -0.040060278 -0.028964795
-0.012909691 -0.088792644 -0.10250781 0.034053426 0.0036896619 -0.16066773 -0.016329655 -0.09805614
