main/model/SOH带实时输入量化模型/滑窗24，推未来一轮/converted_model.tflite (tflite, 315788 bytes, 18 tensors)

dense/bias f4 [64]
00000000: 37f6 943c cc7d be3c 7cd5 2ebc 2744 ffbb
00000010: b46c aebc c5e3 2abb 6e62 4d3c eb4d 7abd
00000020: f844 b43c 1ddd c33c c259 3f3c 57d6 5dbc
00000030: 8416 b93c 7262 94bc 8e91 acbc d32e adbc
00000040: 3040 b2bc a376 b0bd 01bd bd3b 9428 a43b
00000050: 0583 ac3c 2ad6 99bc 13a7 86bc de2c ba3c
00000060: 6792 8abd e921 963c 11d7 8a3c 08f6 aa3c
00000070: 4dbd 81bd b285 77bc caa8 d13c 8675 20bc
00000080: 07f5 62bd 2fd6 94bd aef6 a93b 85c7 8e3c
00000090: 56a1 b23c d971 a5bc ce2c a7bd 3a93 2ebd
000000a0: 43dc 30bc e350 2cbc 7b71 b63c bab2 1cbd
000000b0: 4f62 33bc 0f91 d9bd 23e0 19bd 45e5 76bd
000000c0: 15b5 05bd b019 923c f239 b03c 0160 a5bc
000000d0: cbe1 abbc 5f7b 913c 462b 9ebc 5b76 13bb
000000e0: 306e 93bc 42db ecbb 8131 9abc 4551 a6bc
000000f0: 7974 25bc 7ea5 bbbd eee5 f7bb 110e 643c
0.01818381 0.023253344 -0.010671016 -0.007790107 -0.021292068 -0.0026075703 0.0125356745 -0.061109465
0.022005543 0.023909146 0.011679115 -0.013539872 0.022593744 -0.018113349 -0.0210655 -0.021140492
-0.021759123 -0.08616378 0.0057903533 0.00500972 0.021058569 -0.01877888 -0.01643709 0.022726472
-0.06766205 0.018326716 0.016948255 0.02086927 -0.063349344 -0.015107559 0.02559318 -0.009793645
-0.055409458 -0.07267415 0.005186877 0.017429123 0.021805447 -0.020195888 -0.08162843 -0.042620875
-0.010794702 -0.010517332 0.022270909 -0.038256384 -0.010948732 -0.10623371 -0.03756727 -0.060277242
-0.032643396 0.017834514 0.021512005 -0.02018738 -0.02098169 0.017759023 -0.019307744 -0.0022500965
-0.017996877 -0.007228286 -0.018822433 -0.020302424 -0.01009857 -0.091624245 -0.0075652516 0.013919369

std.constant3 f4 [128, 128]
00000000: 0df8 4c3b 66fe 1b3c e1cf f03b 9e36 c23d
00000010: b3b0 aebc b60f 1f3d 03bd 55bd c803 0dbc
00000020: e675 9c3a 98e7 46bd 16b4 64bd c1da b03d
00000030: c8f0 993b 0dcf a53c 32f9 e43c 50b5 903d
00000040: 04f7 483b a2ce 0f3b 78db 2cbd 28fd 12bd
00000050: 545d b6bc 57b5 60bb 9d3c aa3d 910d 693d
00000060: 39b6 d23d bb56 4a3d ddd7 b439 8482 e03b
00000070: b73b f6bd 1bdf 1e3d 893e 54bd bbf4 883c
00000080: 96cb ecbd 3390 98bd 7a57 a5bd 26d5 9bbb
00000090: b41d f5ba 0cdd 263b a17b 813d 7ba1 90bd
000000a0: 1b6d 183d 3192 c03c 6bf8 e43b fe90 9dbd
000000b0: c3f7 753d 839f b0bc fe79 3cbd 8548 f3bb
000000c0: 4c4a 2f3c aa0a 35bd f50d 513c 19de 85bd
000000d0: 1158 60bd be43 bbbc c833 13bd ebb3 1fbd
000000e0: ac11 07bd 4a29 383d 232a 683d ebf4 6d3c
000000f0: 30ec 01bd a968 943d 62a5 9bba 471f 7dbd
00000100: f3a3 54bc 5015 003d 8c8f dc3d a6a6 1bbc
00000110: 256a 7e3a f07e a63c 5297 9dbc 2198 b6bc
00000120: 555b 5bbc df63 813d 8e81 02bd a7a4 a0bb
00000130: 9832 3e3d 1602 963d 83bb 513d 9f8d 5a3c
00000140: 8404 973c ba6b a5bc 57a6 edba 812d 153b
00000150: 3d13 3fbd 5659 adbb 6fb2 debb 2b06 8bbc
00000160: aacb 4cbc 96ac 85bc 2190 353d e749 bcbd
00000170: 0a81 b03c 2d7e 8cbc fd3b 83ba e0dd 0abd
00000180: f795 cfbd a79b f5bc d87b e2bd 59c5 b6ba
00000190: ac4e f23c 164d ee3b bd07 1bbb c8af 1a3c
000001a0: b316 233d 214b 0c3c b094 1cbd 2fe5 14bd
000001b0: cc6d 33bd 7f74 973b 5d1d bbbd 182b 9a3c
000001c0: 2dd4 6c3c 83b3 c23b 3c86 9bbd d24c a23c
000001d0: 31ae 963d c61f 77bc 7c0d 9abd cd61 cb3c
000001e0: cdfe 56bc dc58 9ebb 4441 583c 2dc1 71bc
000001f0: 2605 2cbc 7319 eb3d 0e5d fbbc ccbb a9bd
00000200: 92a2 85bd 47cf 093d 6f48 ccbd 9058 ec3c
00000210: 001e 30bd 8208 27be 4fe2 373d 547a ffbc
00000220: 10a9 123d 1df6 a1bd e32a 03be e4bf 7a3d
00000230: 4bb1 87bd 3388 583a 1a52 85bc adca 17bd
00000240: 036d d1bc d30b 35bd e7d1 37bd 4684 573d
00000250: 0778 e7bc c93f 203d 4044 f83d e50b 46be
00000260: 729e 853d d6e4 2a3e d28d d5bd d592 3b3e
00000270: 3629 fbbd 909c 0fbe 4223 1dbd e58f a73d
00000280: a0b8 053e f85f aa3d 8eb7 8b3e 26ad 1ebe
00000290: 5276 b9bd 14ce 9d3e 225d e73d 40be a93e
000002a0: 146f 103d 70e8 e9bc de2f aabe 22ca ebbd
000002b0: b82f d1bc b498 1f3e 59da 493d 3aa1 093e
000002c0: de8b 21be dde1 56bd 1308 e83e bc88 4fbc
000002d0: 6bbc 2e3d e962 493c d54b c23d a137 64bd
000002e0: 01bf bf3c 42b1 963d 8b5c 113d b77c adbb
000002f0: a274 c9bb 94ad 92bd c85b 0c3d 2eec 65be
00000300: 3d51 36bd c514 aeba 85f7 133d 8675 91bd
00000310: ee6b fb3d 31ad 94bd c8cc a23e 8e0c 52bd
00000320: a47d 993d ee0a 68be 08eb 713e 3cc7 153d
00000330: 70a5 40bd f7a3 f73c 9cff babd 857f 41bb
00000340: e301 a03c 29f5 b8bd 4783 e5bb 6406 383d
00000350: 0ce7 2cbe ae7d e73d 9bc2 71be ad29 12bb
00000360: eefc c13d 80da 2a3d a6ab 023d e532 13be
00000370: f835 1d3c 093b a3bd debd dabd 3e49 693d
00000380: 7694 d23d bd79 a23d 65ee cabd 0f3e bb3d
00000390: 8b37 6a3d 7bcb 82bd 5b3a bcbc e9e7 41bd
000003a0: db5b cebd 726e 273d ef36 013d 0c70 2abb
000003b0: 9f09 3bbc fe7c 733e 7c09 a13d 4f95 af3c
000003c0: ce0a 60bd e1da 9e3d b5a6 793d c35e 8739
000003d0: ed60 593c c662 21be 1328 af3d 62a2 68bd
000003e0: be14 f0bb 2afe 82be 8ad0 773e b166 083d
000003f0: 9f93 00be 03d9 063e f17a 28be bafb 1dbd
0.003127578 0.0095211025 0.007349 0.09483074 -0.021324491 0.038833342 -0.05218221 -0.008606859
0.0011936992 -0.04856071 -0.055835806 0.08635474 0.004697893 0.020240331 0.027950857 0.070658326
0.003066481 0.002194323 -0.04220149 -0.03588596 -0.0222613 -0.0034287774 0.08312342 0.056897704
0.102886625 0.04939912 0.00034493106 0.006851496 -0.120231085 0.03878699 -0.05181745 0.01671826
-0.115622684 -0.07449379 -0.080733255 -0.004755634 -0.0018700869 0.0025461344 0.063224085 -0.0706205
0.037213426 0.02350721 0.0069876215 -0.07693671 0.060050737 -0.021560436 -0.04601478 -0.0074244165
0.010698866 -0.044199623 0.012759675 -0.065365024 -0.054771487 -0.02285945 -0.035938054 -0.038989943
-0.032975838 0.04496125 0.05668081 0.014523725 -0.031719387 0.07246525 -0.001187485 -0.061797407
-0.012978542 0.031270325 0.10769567 -0.009500181 0.0009705148 0.0203242 -0.019237194 -0.022289338
-0.0133884745 0.06317877 -0.031861834 -0.0049024406 0.04643497 0.073246166 0.051204216 0.013339429
0.01843477 -0.02019297 -0.0018131238 0.0022762718 -0.046649206 -0.0052901907 -0.0067961733 -0.016970715
-0.012499729 -0.016317647 0.044326905 -0.09193783 0.021545906 -0.017150009 -0.0010012385 -0.033903003
-0.101360254 -0.029981447 -0.110587776 -0.0013944312 0.02957853 0.007272373 -0.0023655735 0.009441324
0.03981657 0.008562834 -0.038227737 -0.03635138 -0.043805882 0.0046220417 -0.0913646 0.018819377
0.0144548835 0.0059418096 -0.075939626 0.019812021 0.07357443 -0.015083259 -0.07522103 0.024826908
-0.013122273 -0.00483237 0.013199154 -0.014755529 -0.010499274 0.114794634 -0.03068402 -0.082877725
-0.065251485 0.03364494 -0.09974753 0.028850824 -0.04299736 -0.16311839 0.04489356 -0.03118626
0.03580576 -0.079082705 -0.12809329 0.061218157 -0.06625613 0.00082600414 -0.0162745 -0.03705852
-0.025564676 -0.04420073 -0.044877913 0.05261638 -0.028255476 0.03912333 0.12122393 -0.19340475
0.06524362 0.16688856 -0.10427441 0.1831773 -0.1226372 -0.14024568 -0.038363703 0.081817426
0.1305871 0.08319086 0.2728848 -0.15495738 -0.09055771 0.30821288 0.112970605 0.33152962
0.035262182 -0.028553218 -0.33239645 -0.11513163 -0.02553545 0.15585595 0.0492805 0.1344041
-0.15776011 -0.052461494 0.4531866 -0.012666877 0.042660158 0.012291648 0.0948712 -0.055717114
0.023406507 0.07358028 0.035488646 -0.005294408 -0.006147937 -0.07162014 0.034267217 -0.22453377
-0.04451107 -0.0013281336 0.036124725 -0.07102494 0.12276445 -0.07259596 0.3179686 -0.051281504
0.07494667 -0.2266042 0.23624814 0.036566958 -0.047032773 0.030229552 -0.09130785 -0.002952547
0.01953215 -0.090311356 -0.007004175 0.04492797 -0.16885012 0.113032684 -0.23609392 -0.0022302673
0.09472071 0.041712284 0.031901978 -0.14374883 0.009595387 -0.079702444 -0.106807455 0.056954615
0.10282223 0.07933376 -0.099087514 0.09142696 0.057181876 -0.06386467 -0.022977045 -0.047340307
-0.10076114 0.040876813 0.03154653 -0.0026006727 -0.011415868 0.2377815 0.07863137 0.0214335
-0.054697804 0.077565916 0.06095 0.0002581981 0.013267738 -0.15760335 0.085525654 -0.056795485
-0.0073266914 -0.25584537 0.24200645 0.03330106 -0.12556313 0.13168721 -0.16453148 -0.038570143

std.constant4 f4 [128, 128]
00000000: d55b 1cbd 2386 4cbd c49e 66bd 1dec 5ebd
00000010: ce41 b2bd 98be 553d 6f7d babb e997 a83c
00000020: 1c78 c93c 2d8d 7e3c d571 343c 102e 45bd
00000030: 198f 58bd b159 203d 9f87 3ab8 cf2d ac3d
00000040: eb04 12bd 8835 e8bc 24ce d1bc 9941 183d
00000050: 57cc 39bd 7d06 1e3b 8804 343c 47b7 a23d
00000060: 213c 353d 81c2 5cbc d188 8b3d 11ca 533a
00000070: 06cc dabc c8ea 7b3c d9e4 003c e984 e4bc
00000080: 37bc 243d 3635 84bc 6659 fdbc 113e 663d
00000090: ed83 dbbd d308 31bd fb95 3f3e 3cd8 243d
000000a0: adf6 783d e18e 0dbd ebe5 b83c 0feb 27bd
000000b0: 8ce2 19bd 7b63 b93d 541e 2cbd f1a4 20bd
000000c0: db57 a0bb b28a 663b 4265 ea3b a621 84bd
000000d0: 63c0 63bb 02f1 15bd d484 23bb 056d 6c3b
000000e0: 963f 433a 30ed 523d 8538 2c3d 0bb3 ab3c
000000f0: 965e 2cbd 40ea a23c 937d a3bd b428 9fbd
00000100: 4d95 69bd ecb0 193d 050d 2dbd 30fe a03c
00000110: 9184 33bd 2b42 a83d 7b2c 813d 298a 993d
00000120: 96b9 68bc 0c81 d4bc aa12 32bd 0a4f 0eba
00000130: d280 03bd a490 0d3d c567 6c3d 9d46 1f3c
00000140: c5f0 c23c 592e 5abd e5b4 a2bc c4db a73d
00000150: 0f72 7ebb 8d58 ccbc eeb6 47bd f6de 50bd
00000160: 61fe ad3c a532 f2bb 3840 953d 13d3 82bd
00000170: 076b fb3c 9da4 d6bc 6658 e3bc 2bdc 55bc
00000180: 497e 333b 6503 3ebc 6f11 9ebc 002c 9fbc
00000190: f7e1 5c3c c691 68bd 2a09 d13c 1e62 9ebc
000001a0: f9f8 9fbc 9b83 063d d2d5 853d d673 f2bc
000001b0: 8540 43bb e49e e3bb fd15 05bd 40aa d43d
000001c0: b0b8 85bd ea15 66bb 3558 a6bd cf7b 3b3c
000001d0: bb8d 68bd 1e79 253d 88b9 263d 8d96 4e3d
000001e0: 414b a73c 1e26 97bd 876c b5bd 60b9 db3c
000001f0: ab9d 6bbc 2994 8fbc 65cc 02bd 7177 e9bc
00000200: 0486 933d 0f7e febb 224b 05be 646d 71bd
00000210: 5db0 abbc 04a9 8cbd 3c96 c7bc 5868 6e3d
00000220: 5cbd c03c 0314 63bd d8e8 cebd be53 6e3d
00000230: 744f 9c3b 1fe7 a43c 03b0 343d 7b26 8dbd
00000240: a525 babd 1da2 e8bc cd3a 523c f8df e13c
00000250: 823e 55bd 726f 7d3d 9b09 6a3d 6787 433c
00000260: dcfb 0c3e bc29 213e 6720 c5bd 2de4 2bbc
00000270: 035e 99bd ee61 823c 308d a43d ff48 b03d
00000280: c351 023e 20a4 983c c464 233e da82 76bd
00000290: 95ac 94bd e80c 803e 1dab c73c 4042 873e
000002a0: 1038 493d db38 4bbd 9601 b0bd 5cef 4c3d
000002b0: 964b 7f3d 1ed8 1f3e 59f4 863e 2030 39bd
000002c0: 79f1 afbd 9116 15bd 64a6 a73e ca8f bd3a
000002d0: 8780 823c 1d6d 6b3c 753f 05bc 88a8 9c3b
000002e0: 44f1 c1bc ebcb 833e f33f 473d 44be 0a3c
000002f0: f43c 17bc 9e67 e0bc e190 30bd 8515 bfbd
00000300: 299b 84bd 56f1 783d ae09 adbd c232 7bbd
00000310: 2915 543c f60f 163a 6a28 503e 06b7 963d
00000320: 9a36 f8bd 29f4 4dbe f177 833d 66b6 b73c
00000330: bb27 2d3d affd 39bd 18d9 9abd de3e d13d
00000340: c8d1 263d 263f e1bd a396 313d adc6 243d
00000350: b680 0cbe 2b69 d03d 510c 18be cf3f 593d
00000360: 292e 323d 44b0 593c f807 173d b1e7 88bc
00000370: d8da e0bd f466 47bb 6195 95bd 6ae1 35bd
00000380: 0863 0dbd 493b 27bd aac2 343d 1082 9f3d
00000390: a186 cd3d 5a68 9cbc a93c 0d3d 0ed9 9fbc
000003a0: 4970 4abe 70f7 303d f3ab 53bd a4e8 023d
000003b0: a931 963d 806c 8c3e a78e 99bb 2179 073a
000003c0: b4e0 c43c 8c49 06bd ea54 733b 07da 75bd
000003d0: 9e7b 3abd b4fd 6b3c 57e8 8c3d 9f56 473d
000003e0: 69a4 57bd 11e2 2abe 3135 143e dbcf 86bd
000003f0: 1428 89bd 0880 26bd 7f7c 9fbc a22f 093c
-0.038173515 -0.04993261 -0.056303754 -0.054424394 -0.087039575 0.052183717 -0.0056912224 0.020580249
0.024593405 0.015536589 0.011013468 -0.04813963 -0.052870844 0.039148036 -4.4472163e-05 0.08407175
-0.03564922 -0.028345838 -0.02561099 0.037171934 -0.04536089 0.0024112754 0.010987408 0.07945114
0.044246797 -0.013474108 0.06813205 0.00080791215 -0.026708614 0.0153758 0.0078670615 -0.027895408
0.04021856 -0.016138654 -0.030926418 0.056211535 -0.10718522 -0.043221306 0.18709557 0.04024528
0.060782123 -0.034560088 0.02257057 -0.040995654 -0.037569568 0.090521775 -0.04202111 -0.0392198
-0.0048932857 0.0035177884 0.007153184 -0.064517304 -0.0034752123 -0.036606796 -0.0024950998 0.0036075723
0.0007448135 0.05149573 0.04204609 0.020959398 -0.04208239 0.01988709 -0.07982936 -0.077714354
-0.05702715 0.03752224 -0.042248745 0.019652456 -0.043827597 0.082157455 0.06307312 0.07497055
-0.014204403 -0.02594044 -0.04347483 -0.0005428648 -0.032105274 0.03456177 0.05771615 0.009721425
0.023796448 -0.053266857 -0.019861648 0.08196214 -0.0038825308 -0.024944568 -0.04875844 -0.050993882
0.021239461 -0.007391291 0.072876394 -0.063879155 0.030690683 -0.02620154 -0.027752113 -0.01305298
0.0027388504 -0.011597489 -0.019295422 -0.01943016 0.013481609 -0.056779645 0.025517065 -0.019333895
-0.0195279 0.032840353 0.065349236 -0.02959625 -0.0029793095 -0.0069464315 -0.032491673 0.10384035
-0.06529367 -0.0035108277 -0.08122293 0.0114430925 -0.05677579 0.04039871 0.04070428 0.050436545
0.020421626 -0.07380317 -0.088585906 0.026821792 -0.014380853 -0.017526703 -0.031933207 -0.028499337
0.07203296 -0.007766492 -0.13016942 -0.058942214 -0.02095812 -0.06868175 -0.02436363 0.05820498
0.023527794 -0.055439007 -0.10103005 0.05818533 0.0047702137 0.020129738 0.04411317 -0.06892105
-0.090892114 -0.028397614 0.012831402 0.027572617 -0.052061565 0.06187386 0.057138067 0.011934138
0.13767952 0.15738577 -0.09625321 -0.010491413 -0.074886344 0.015915837 0.08034742 0.08607673
0.12726502 0.018632948 0.15956408 -0.060183384 -0.0725948 0.25009847 0.024373585 0.26417732
0.04912573 -0.04961477 -0.085940525 0.05003296 0.062327944 0.15609786 0.26358297 -0.04521191
-0.08590979 -0.036398474 0.32744133 0.0014462408 0.015930427 0.014369276 -0.008132805 0.0047808327
-0.023674615 0.25741515 0.04864497 0.008468214 -0.009230841 -0.027393159 -0.043106917 -0.093302764
-0.06474907 0.06077703 -0.08449112 -0.061327703 0.012944498 0.0005724424 0.20327917 0.07359128
-0.121197894 -0.20112671 0.064193614 0.022425842 0.042274218 -0.045407947 -0.075609386 0.10217069
0.040727407 -0.10998373 0.04335655 0.040228534 -0.13720974 0.10176309 -0.14848448 0.05303937
0.043501053 0.013286654 0.036872834 -0.016712042 -0.10979241 -0.0030426355 -0.073038824 -0.044404425
-0.03451827 -0.040828023 0.04413096 0.07788479 0.10035444 -0.019092727 0.03448168 -0.01951268
-0.19769396 0.043204725 -0.051677655 0.031960145 0.07333691 0.2742653 -0.004686195 0.0005167891
0.024032928 -0.032784984 0.003712947 -0.06002238 -0.045528047 0.014403749 0.06880253 0.048666593
-0.052647028 -0.166878 0.14473416 -0.06582614 -0.066970974 -0.040649444 -0.019468544 0.008373173

std.constant5 f4 [128, 128]
00000000: b71e 31bf 943d b2bd a555 1b3d ff62 933d
00000010: 580c acbb 3abf e03b d4c7 53bd 8f01 2b3e
00000020: 8bcb debc 0325 063e 6ab3 133d dba8 2cbd
00000030: 6a72 843e 3c5d 0c3e be90 aa3c aaaf 04bd
00000040: 115e e73d 3864 0abe bfa8 c93d b0e8 b33d
00000050: 0201 eabc 9fb3 983d a655 2e3e d4f6 043e
00000060: c470 9d3e 97d9 273e 5290 d5bd 6ff9 99bc
00000070: 4d12 fabd 3f63 3d3e 07fb 133d 903c 993d
00000080: d44b b5bd 1717 2c3e 0b80 ea3c efe1 8a3d
00000090: e6b3 0a3d 0958 8c3c bb09 813c 160d 8c3b
000000a0: 9159 df3d e016 90bd 330d f83c d8a0 debd
000000b0: 4d3b 8fbd 29cd f7bc 91f6 c63d e568 163d
000000c0: 7d8a 023b d2e3 1dba c52f b13d 28e2 32bd
000000d0: 907e b0bc 7f37 1fbd 6634 8fbe b3f1 6ebe
000000e0: bca8 b0be 2e97 b83d d56f 893d eb1c 9bbe
000000f0: f45e f9bd f69b 3e3d 1e97 63bb 24bd 4abc
00000100: 601a 31bd 63ff 023c 2e97 f6bd 1864 babc
00000110: e5a7 98bd 7aa0 f2bd 957d 42bd 73ba 383d
00000120: 2928 cdbd eb6d 543d ea42 b23c f4ee f03d
00000130: d07b e2bd cb69 95be 0de1 5abc f78e 203e
00000140: 2713 03be e423 cebd 9b0c 4dbe 650f ae3c
00000150: 3380 103b 1014 71bd dda3 f83c b29f 80bd
00000160: 19da 80bd daa1 cb3d 0dcd c8bc 36f5 75bd
00000170: 3b1c 053e f05f 12be bfbb 013c 63eb 643c
00000180: b3ca 493d 5f3c 01bd 5091 dd3d a0b1 38bd
00000190: 2665 92bc c77c bcbb 9adf 21be 02db 433e
000001a0: d8b0 193e 8fb6 403c 17b8 3b3e f1c1 093d
000001b0: e82b 763d ea5f 18bd 5a30 34be e132 8bbd
000001c0: 801c 4cbd 0ae6 043d 1cc5 34bd 4e7f 823e
000001d0: f2b2 4d3d caec eeba 0f1a db3d 2f07 d13b
000001e0: e493 873b 9a9e 05bd 31e2 b3bd f8f4 14be
000001f0: 02ff bfbb 8d0b b43c 12f4 e8bc 543d 7e3e
00000200: a5c4 7a3d 5015 c2bd a741 17bd 8472 ffbb
00000210: c9fc 803c 68e3 a6bd aeb8 47bd 132d 133d
00000220: ae6e 913b aec2 343d be8a 613b 8190 b43a
00000230: 48bb b9bd 5356 0d3e 77a6 dbbc 5ae5 763c
00000240: 40e4 593c 59be 1e3c 8a07 c9bb bf8b 5fbd
00000250: 668c f2bc 25ef 5b3c 213d 81bd 09cb f33c
00000260: df3e d6bd 99a7 133d 0e65 3c3d 5a8c 08bd
00000270: 5d90 e4bd 85c2 09bd 89f4 a53c 4b30 b1bd
00000280: a154 973b 1663 103d d29c 15bc 2679 8f3d
00000290: ea21 d2bc 2a5f 8abc 236b 86bb 0959 22bd
000002a0: c3ee db3c c391 9a3a 03d4 123d 40b5 0abd
000002b0: c94b 1ebd 89b9 9abb 750d 26bd 7008 9abb
000002c0: 2912 acbd 3363 0d3d d6c3 9b3d 564d de3c
000002d0: 9c5f 093d f45a 7ebb a90b d7bc af67 073d
000002e0: e47c 603d 2997 12bc 32ce 543d 9f1f 173d
000002f0: 5e55 96bc 99ec 963d 2c94 3cbd e07c b9b9
00000300: ab6f 85bd f1ae 8abc c4de 1c3c ef24 173d
00000310: 3b69 2b3d 7db0 cf3c 642f a43c 1343 3abc
00000320: 00f2 243b 61c9 613d 3d96 89bd 8c8c 19bd
00000330: 3082 8fbc 84c2 623d 6ec3 863d e829 e93b
00000340: 9ed5 543d 59b1 813b 152f f63c 1f3c 7a3d
00000350: f798 d93c 2532 323d a79c f73b ed1a c3bb
00000360: aba5 5f3d 60a0 903d 72a5 97bc b898 553d
00000370: d75f e93b 325b c2bc bf5d 9b3c 3bdb 93bd
00000380: 10df 47bd f995 c73c 8bc3 37bc 112b a4bc
00000390: 0d3e 12be 44d5 8ebd caba 863b 53f6 11bd
000003a0: e636 78bd c994 1fbd e4a7 cdbc 7634 82bd
000003b0: 0ba5 48bd ef80 783c 561f dcbd 344d da3c
000003c0: 39f0 9f3c 72f3 73bd 330b cd3c 8cd5 87bc
000003d0: 5108 d3bc 9ad7 8dbc 03f2 bbbd 5a5e 16bc
000003e0: 33ed 6c3d 842e 0cbd 7a51 943c 6432 bd3d
000003f0: 5a6a 5dbd ec61 81bd 5237 963d 131e 6ebd
-0.6918749 -0.08703151 0.037923474 0.071966164 -0.005250495 0.0068587335 -0.051704243 0.16699813
-0.027196666 0.13100056 0.036059774 -0.04215322 0.2586854 0.13707441 0.020820972 -0.03239409
0.112972386 -0.13514793 0.09846639 0.08784616 -0.028564934 0.07456135 0.1702486 0.12984782
0.30750096 0.16391598 -0.104279175 -0.018795697 -0.12210522 0.1849489 0.03612807 0.074822545
-0.08852354 0.16805683 0.028625509 0.06781375 0.03386297 0.017131822 0.01575171 0.004274021
0.10905755 -0.07035613 0.030279731 -0.10870522 -0.069937326 -0.030249195 0.097149976 0.03672113
0.0019918971 -0.00060230226 0.086516894 -0.04367271 -0.021544725 -0.038871285 -0.27969664 -0.23334388
-0.34503734 0.0901321 0.067107834 -0.302955 -0.12176314 0.046535455 -0.0034727524 -0.012374196
-0.043238044 0.007995459 -0.12040554 -0.022752807 -0.07453898 -0.11847015 -0.047483046 0.045099687
-0.100174256 0.05186264 0.021760423 0.11764327 -0.110587716 -0.29182276 -0.01335932 0.15679537
-0.12800275 -0.10065439 -0.2002434 0.021247575 0.002204907 -0.058857024 0.030351574 -0.062804595
-0.06291599 0.0994298 -0.024511838 -0.060048304 0.1299905 -0.1429441 0.007918297 0.013972136
0.049265575 -0.031551715 0.10818732 -0.04509127 -0.017870497 -0.0057521793 -0.15807953 0.19126514
0.15008867 0.011762275 0.18331943 0.033632223 0.060100466 -0.037200846 -0.1759657 -0.06796814
-0.049831867 0.032445945 -0.04413329 0.2548775 0.050219484 -0.0018228528 0.1069833 0.00637903
0.004137503 -0.032621957 -0.08783377 -0.14546573 -0.0058592567 0.021978164 -0.028436694 0.24828082
0.06122269 -0.09476721 -0.036927845 -0.0077956337 0.015745537 -0.08148843 -0.04876011 0.035931658
0.004438243 0.044130974 0.0034414972 0.0013775976 -0.09068924 0.13802461 -0.026812775 0.01506933
0.013299048 0.009688937 -0.006134932 -0.05457663 -0.029607963 0.013423716 -0.063104875 0.0297599
-0.104612105 0.036048505 0.04599481 -0.033336975 -0.111603476 -0.033632774 0.020258205 -0.08651789
0.004618243 0.035250746 -0.009131627 0.07005529 -0.025650937 -0.01689108 -0.004102127 -0.03963569
0.026847249 0.0011792708 0.03584672 -0.03386426 -0.038646493 -0.0047218245 -0.040540177 -0.004700713
-0.08401901 0.034518432 0.07605712 0.027136486 0.033538446 -0.0038811537 -0.026250677 0.033057865
0.054806605 -0.008947172 0.051954456 0.03689539 -0.018351253 0.07369346 -0.046039745 -0.0003537899
-0.065154396 -0.016929122 0.009574596 0.036900457 0.041848402 0.02535271 0.020042129 -0.011368531
0.0025168657 0.05512369 -0.06718109 -0.03748755 -0.017518133 0.055361286 0.06580244 0.0071155913
0.051961534 0.003957909 0.030051747 0.061092492 0.026562197 0.043504853 0.007556516 -0.0059541375
0.054601353 0.07061839 -0.018511508 0.052147597 0.0071220207 -0.023725126 0.0189656 -0.07219549
-0.048796713 0.024363505 -0.011216055 -0.020040067 -0.14281483 -0.06974271 0.0041116225 -0.035635304
-0.06059923 -0.038960252 -0.02510447 -0.063576624 -0.048985522 0.015167459 -0.10748164 0.026648141
0.019523727 -0.05955834 0.025029754 -0.01658132 -0.025760802 -0.01731472 -0.091770194 -0.009177769
0.0578434 -0.03422405 0.018105257 0.09238127 -0.054056503 -0.06317505 0.0733477 -0.05813415

std.constant6 f4 [128, 128]
00000000: 729e 143d f99a 0b3c 9c72 91bd 483f b13d
00000010: e311 f8bc dbe5 b23c 6cdc 893d c0c8 1c3d
00000020: 2d86 02bd 6c92 89bc 8003 5dbd 034b 34bc
00000030: d6b5 cbbb e9dd ca3b 8f99 d7bd f262 2e3d
00000040: 68ab 133d 68e7 b1bd 106a bfbc f740 d5bc
00000050: 1e2e 85bd bbfb ea3d 720e 543c 1c70 eb3c
00000060: a4f5 a73d 1b91 f63b 8062 6a3c a104 21bd
00000070: dc25 96bc 0173 d53d a07b c43b 6abc 3839
00000080: ec01 083b 2f9f eabc a710 e0bc f764 523d
00000090: a97c 913c b918 46bd 0118 44bd 9a8b e13c
000000a0: 1cb6 be3c 74fe d2bc 8485 663d 8528 323c
000000b0: fbd3 38bd 9436 eb3c fdc7 2cbd 904a cb3c
000000c0: 04dd 333d 4921 c4bc 471e 0b3d 80eb 67bd
000000d0: 57ec 733d 2e4b 02bd bb28 d3bd e226 033d
000000e0: aeec 523d 765b e83b 0211 583d 7831 c8bd
000000f0: 1f68 91bd 7fdd fd3c 84d4 15bd c413 893a
00000100: 2485 40bd d33e b0bd cd73 18bd fd53 b8bc
00000110: 661b 11bd fa7a 1d3d 9c79 713d 9bfb 623d
00000120: 5a25 903c ca4a 0ebc c970 8d3d e798 4d3d
00000130: dc2f 2cbd 9a5e 90bc 352b 303d 5ea6 ee3c
00000140: 1a70 c53c 40db 5fbd ac50 1a3d 97ef 88bc
00000150: 23f1 9f3c e73d 7ebd fb6f b83c e6d2 ac3c
00000160: 5d95 9d3d 83eb 84bd 58b4 b13d eeb7 c73c
00000170: 5c52 b23c 795a 7bbc 3661 e9bc b9de 29bd
00000180: 233e e8bd 18b3 603d 51e0 823c d107 67bc
00000190: 6461 3e3c e56f 783c d535 30bd f104 fc3a
000001a0: 57b2 0cbd e621 aabd f56a f23b a71b 22bc
000001b0: d55d abbd 6c67 b83c 4198 c5bd 11d8 a5bd
000001c0: e88b f4bb 8700 8c3d f91f 1b3d 85e1 2cbd
000001d0: 259b 0bbd 2e52 24bd b3f8 923c bf7c f63b
000001e0: eeed 61bd 9e77 b83d 70ab c4bc a3f2 c03c
000001f0: bbbf 0fbc 154d 9bbb cbf7 88ba 1191 93bd
00000200: 79f1 b3bc 712a 5c3d b39d 77be 3370 d2bc
00000210: 8276 a33d 3016 00bd 3200 01bc 760e 943d
00000220: 797b 8ebc 2302 41bd 4cd3 3dbe 4af6 4e3c
00000230: d8f3 adbc 96ac 0bbd dff9 b4bd d6da babc
00000240: 8832 cfbc c9ec 35bb b818 12be e84c 9f3d
00000250: 7806 13bd edbd 8d3d 2c2f 5a3d c394 e4bd
00000260: 3cb2 c6bc 8f54 363e 81b4 59bd 8b13 7a3d
00000270: d1e0 f23c a3e5 21be 7069 cbbc 7d4b a33d
00000280: 8852 023e dc99 963d 8df2 643e f3d9 01be
00000290: 3db2 97bd 272e a43e 6d91 923c c7e1 963e
000002a0: 8554 eb3c 97a3 31bd 7484 7abe f7d9 e2bd
000002b0: f58c 583d 0ee0 2d3e 801f 363e 683a 203d
000002c0: 2c97 3abe a3e7 cfbd e92f 963e 2823 923c
000002d0: 382b 8dbb a871 e2bb 4842 bdbc a374 e1bc
000002e0: c4a1 493d 9425 f83d 14dd 413d d40c 043c
000002f0: e0c3 513d 803e 9cbd 5fd8 533d 260f 85be
00000300: af2e c33c ea20 a13d 7fed 91bc c5e3 d0bd
00000310: 0b38 4e3d 64c8 b83b 1a57 6e3e df05 683a
00000320: 564e 5ebd cbf2 9abe 09a3 343e 333e 4e3e
00000330: f525 7f3d 73b2 783d f851 aebc adc6 043e
00000340: 175e eb3b 78e7 4fbe a0ce a93d ad18 1b3d
00000350: 62eb 76be f332 863d 14f7 45be 8411 6dbc
00000360: 01bc 0bba fcfb 223d 20a7 4dbd 0fc8 67bd
00000370: f9e6 efbd 1099 743d 61df 55bd 8d78 5bbb
00000380: a2b4 58bb 08f8 8b3c 20ae 8ebd a2c2 3b3c
00000390: 9919 153e ee3a ee3c 014a 7e3d 11b4 edbc
000003a0: 8bd7 b6bd ac91 cf3d 53e5 54bd 2699 babc
000003b0: 2b8a 713c b6f3 863e ab75 1fbc b8aa 983d
000003c0: f801 833d 61c6 a3bc 8f1a 003e ab74 68bd
000003d0: 6f66 d4bc fb9c c0bd 1ca3 773d 2f42 5ebd
000003e0: 6013 553c 6c33 a3be d8c1 333e 51e8 a43c
000003f0: b20c 50bd 4b63 e5bd bc9e d8bd db0f 843d
0.036283918 0.008520835 -0.07101938 0.08654648 -0.030281967 0.02183812 0.06731495 0.038277388
-0.03186624 -0.016793452 -0.053958416 -0.011004212 -0.006216745 0.0061910045 -0.10527336 0.04257483
0.036052138 -0.08686715 -0.023366004 -0.026031954 -0.06502937 0.11473795 0.012942897 0.028739981
0.08201149 0.007524622 0.014305711 -0.039311055 -0.0183286 0.10422326 0.0059961826 0.00017617797
0.0020753099 -0.028640358 -0.02735169 0.05136582 0.017759638 -0.04836342 -0.047874454 0.027532388
0.023280196 -0.025756098 0.056279674 0.010873918 -0.045124035 0.028712548 -0.04218291 0.024815828
0.04391195 -0.023941653 0.03396442 -0.056621075 0.059551563 -0.03180998 -0.10310503 0.032019503
0.051495247 0.007090981 0.052750595 -0.097750604 -0.07099938 0.030989407 -0.036579624 0.0010458161
-0.047001973 -0.08605733 -0.03721981 -0.022500986 -0.03542652 0.038447358 0.058953866 0.05541573
0.017595936 -0.008684823 0.06906278 0.050194647 -0.04203783 -0.017623235 0.043009955 0.029132064
0.024101306 -0.054652452 0.03767459 -0.016715808 0.019524163 -0.062070753 0.022514334 0.021096658
0.076945044 -0.06490233 0.08676976 0.024379697 0.021767788 -0.015341395 -0.028488737 -0.04147217
-0.11339977 0.054858297 0.015976103 -0.014100985 0.011619899 0.0151633965 -0.04302009 0.0019227547
-0.034349766 -0.08307247 0.007398004 -0.009894288 -0.083675064 0.022510253 -0.09648181 -0.08097852
-0.007462967 0.06836038 0.03787229 -0.04220726 -0.034083504 -0.040117435 0.017940855 0.007522195
-0.055158548 0.0900719 -0.024007529 0.023553198 -0.008773739 -0.0047394135 -0.0010449825 -0.072054036
-0.02196573 0.053751413 -0.24181251 -0.025688266 0.07981588 -0.03127116 -0.007873582 0.07229321
-0.01739286 -0.04712118 -0.18537635 0.012631962 -0.021234438 -0.034100138 -0.08836722 -0.022809427
-0.02529265 -0.0027759543 -0.14267242 0.077783406 -0.03589484 0.06920991 0.053267643 -0.111611865
-0.02425491 0.17805694 -0.053150658 0.061053794 0.029648216 -0.15810256 -0.02483055 0.079733826
0.12726796 0.07353565 0.22358151 -0.12680797 -0.07407043 0.3206646 0.01789161 0.2946913
0.028726825 -0.043368902 -0.2446459 -0.1107673 0.052868802 0.16980001 0.17785454 0.0391182
-0.1822173 -0.10151603 0.29333428 0.01783903 -0.0043081306 -0.0069105215 -0.023102894 -0.027521437
0.049226537 0.121165425 0.047329977 0.008059699 0.05121219 -0.076291084 0.05172002 -0.2598812
0.023825971 0.07867606 -0.017813442 -0.101996936 0.050346415 0.005639123 0.23275414 0.00088509725
-0.054273926 -0.3026336 0.17640318 0.20140915 0.062292058 0.060717057 -0.02127932 0.12966414
0.0071828472 -0.20303142 0.08291364 0.03786533 -0.24113229 0.065526865 -0.19332534 -0.014469508
-0.0005330444 0.039791092 -0.05020821 -0.056587275 -0.117139764 0.059716284 -0.052214984 -0.0033488602
-0.003306665 0.017086044 -0.069668055 0.011459978 0.14560546 0.029080834 0.062082294 -0.029016526
-0.0892783 0.101352066 -0.051976513 -0.022778105 0.0147424145 0.26357812 -0.009732644 0.07454437
0.0639686 -0.019992055 0.12510131 -0.05675189 -0.02592775 -0.09404942 0.060458288 -0.054262336
0.013005108 -0.3187517 0.17554414 0.020130308 -0.050793357 -0.11200579 -0.10577151 0.06448337

std.constant7 f4 [128]
00000000: 2eca 25bf 9aff 1f3e b37b fdbd f10b 02be
00000010: 4705 41bf 4201 c2bd 6dd1 3bbf 96ba 0f3c
00000020: 7e97 8cbf f5e1 e1bd a825 0cbf cf0e 2cbf
00000030: c196 16bf 654c 23bf 110c 98be affb 7ebf
00000040: 0f88 ae3e 9395 2cbf 4458 23bf a8d8 04bf
00000050: adcd 96be e850 7bbe 0db8 b63e c492 1ebe
00000060: 467d cd3d 1bd5 223e 3ece 53be 1567 5ebe
00000070: f15b a93d 7418 03bf 464d f3be 8921 2fbf
00000080: 9104 23be d541 d0be 2272 1cbd e508 e5be
00000090: 8a3d 2ebf ee8a 83bd 7d5b 82bf 2267 813d
000000a0: 519f 91bb 1ea9 31be 9c7a a9bc e8b8 c2bd
000000b0: 051b 25bf bedf 18bc d23a af3d d8b5 86be
000000c0: e12f ddbd c68d 09bf 368d 85bd a97d dfbe
000000d0: 45a9 4ebf a9bc 68bf 5013 0e3e 1e18 27bc
000000e0: 7aab cc3e 61db 0a3e 7cfb 05bf 201b 82bd
000000f0: 8a36 54bf c54e 92be f05b 99be 7ca9 dfbd
00000100: 7e38 45bf 0323 6bbf e92f bebd b120 7fbe
00000110: bec4 01be 580e 53be bbf4 80bd d697 2cbf
00000120: 1444 19bf ef08 e5bd 3424 a7be 9652 1ebe
00000130: df3b 15bf fb19 d83d 4f60 50bf 98e6 67bd
00000140: cb15 27be a4ef 8ebd 50ee f2bd f159 a6bd
00000150: 60dc bfbc 5e16 9cbe d7b6 65bd 5cbd 25bf
00000160: daa1 31bf 9819 0abf 87e6 17bf c8fa e1bd
00000170: c254 87bd ad69 ef3d 83d8 19bf 66a5 d3be
00000180: c0a4 15bf a1c6 8abe 3ecd 65be 4165 19be
00000190: 27cf 893c 6d42 7bbf 1b35 29bf 8700 5cbe
000001a0: af1b dcbd 7d32 0fbf 098d cfbe 7fd3 4bbf
000001b0: 678f c3be f6bf 0b3c d0a3 d0bd 8d81 25bf
000001c0: 9e95 6bbf 3b8f dabe cd58 82be 03a3 7e3e
000001d0: 189f 36bf be6d ebbe c43e ad3d 5f9b 75bf
000001e0: 1a31 0dbf df42 d0bc 1df4 f5bd 520e 0c3b
000001f0: f2e5 c9be 7640 62bd 6756 2cbe 2ef7 dfbc
-0.64761627 0.15624848 -0.123771094 -0.12699868 -0.7539868 -0.09472896 -0.73366433 0.008772513
-1.0983732 -0.11029426 -0.5474496 -0.67210096 -0.5882378 -0.63788444 -0.29696706 -0.9960279
0.3408818 -0.6741573 -0.6380656 -0.5189309 -0.29453793 -0.24542582 0.35687295 -0.15485674
0.1003366 0.15901606 -0.20684144 -0.2171901 0.082694896 -0.5120919 -0.47519892 -0.68410546
-0.1591971 -0.40675226 -0.038194783 -0.44733348 -0.6806265 -0.06422983 -1.018417 0.06318499
-0.004444041 -0.1734967 -0.020688348 -0.09507924 -0.64494354 -0.009330688 0.08556141 -0.2631061
-0.10800148 -0.53731954 -0.065210745 -0.4365056 -0.80727035 -0.9091287 0.13874555 -0.010198621
0.39974576 0.13560249 -0.5233686 -0.0635283 -0.8289572 -0.2857572 -0.29952955 -0.109209985
-0.77039325 -0.918503 -0.09286482 -0.24914815 -0.12672707 -0.2061094 -0.06296679 -0.67419183
-0.59869504 -0.111833446 -0.32644808 -0.15461192 -0.5829448 0.105518304 -0.81396955 -0.056616396
-0.16316907 -0.069793016 -0.11861861 -0.08122624 -0.023420513 -0.30485815 -0.056082573 -0.64742064
-0.6938759 -0.539453 -0.5933613 -0.11034161 -0.06607963 0.11690078 -0.60095996 -0.41337126
-0.58454514 -0.27104667 -0.22441575 -0.14980032 0.01682241 -0.9814823 -0.6609666 -0.21484576
-0.10747468 -0.55936414 -0.4053729 -0.7961959 -0.38195345 0.008529654 -0.10187495 -0.64650804
-0.9202517 -0.426874 -0.25458375 0.24866872 -0.7133651 -0.45982164 0.08459237 -0.959402
-0.5515305 -0.025422512 -0.120094515 0.002137084 -0.39433247 -0.055237256 -0.16829835 -0.027339544

std.constant8 f4 [128]
00000000: cf0e fb3d 8ec9 6a3f c318 7b3f b9a8 6f3f
00000010: 4a61 d63e cfdc 653f 26ce f93d a68e 303f
00000020: 00d6 0a3d 4e34 623f 4e25 2e3f 21b2 953d
00000030: 8b5f f03b 2de6 c03e 1ca0 003f acf4 8b3c
00000040: 14a8 203f d9aa c43e fdc3 983e ac12 e03e
00000050: 9b9e fb3e 82c8 4c3f e143 563f 89ab 5d3f
00000060: e779 0c3f a687 4b3f 6266 b33e fe6e 273f
00000070: 5d4f 693f 4c65 023f ab2c d63e c9ea bf3d
00000080: 393e 713f 8d56 033e 778a 883f a354 273f
00000090: 57ca 013f 8bd5 883f 8bbb 203d c5ea 973f
000000a0: 1ccc 293f 188e 013f 04b5 863f c7f9 353f
000000b0: 9161 bd3d fb79 7a3f 058c 483f 179c 243f
000000c0: 67cf 703f 2f6f 0e3f 6f82 853f d62c ba3e
000000d0: c38c b93d 7aae 323e 1af2 463f b4bd f53e
000000e0: 946e 4f3f da98 583f 4231 e93d 42c3 0b3f
000000f0: 2cb0 0d3d 59aa 3f3f 0daa a83e 8e3b 813f
00000100: 90af f33c db45 17bc 73a3 633f b874 5a3f
00000110: 97ea 6f3f 0d81 283f 90ef 833f 5b48 393e
00000120: 9657 923d eef6 803f f2e5 2e3f aa52 4f3f
00000130: 2831 453e dbf4 673f 1705 a43e dec9 593f
00000140: d24d a53e f003 723f 0878 9e3e cacd 2e3f
00000150: 7024 733f aabd 4f3f 17b3 873f 095a 263d
00000160: 606c e73d 229c 653e 88e7 143e 94b1 033f
00000170: e23c 5f3f ca2e 373f 89ec 083f be78 b43e
00000180: 7ba4 dc3e f1f6 013f 1841 013f ca8e 6d3f
00000190: 9bd3 6f3f 058e 6c3c a167 133e bcf3 3f3f
000001a0: d9ae 7a3f f317 f63e 948c 8d3e 4f6b b73e
000001b0: 947d b43e 3cfb 8f3f c833 303f 0118 0b3e
000001c0: 2f38 0b3e fb97 7d3e a59e 313f 4c4c 193f
000001d0: eec6 823e 0653 de3e 53c8 2f3f 4f70 2e3e
000001e0: 2895 423e 170f 873f 4b1c 7d3f 4f60 703f
000001f0: 2a21 3d3f 2e33 013f 38ef 033f 387f ae3e
0.12258684 0.917138 0.9808466 0.93616825 0.418711 0.8979005 0.12197523 0.68967664
0.033895493 0.8836106 0.6802567 0.07309366 0.0073356084 0.3767561 0.5024431 0.017084442
0.62756467 0.38411596 0.29837027 0.43764246 0.49144444 0.7999345 0.83697325 0.86589867
0.5487351 0.7950386 0.3503905 0.65403736 0.91136724 0.50935817 0.41830954 0.093709536
0.9423557 0.12825985 1.0667256 0.6536352 0.5069937 1.0690168 0.039241355 1.1868521
0.6632707 0.5060744 1.0523992 0.71084255 0.09247125 0.9784238 0.7833865 0.64300674
0.9406647 0.556384 1.043043 0.36362332 0.09060051 0.1744937 0.7771317 0.47996294
0.81028104 0.8460823 0.11386348 0.54594815 0.03459184 0.74869305 0.32942238 1.00963
0.0297468 -0.009232963 0.8892128 0.8533435 0.9371733 0.65821916 1.0307484 0.18094008
0.07145612 1.0075357 0.6831962 0.8098551 0.19257033 0.90607995 0.32035133 0.8507365
0.32285935 0.9453726 0.30950952 0.6828276 0.94977474 0.8114878 1.0601529 0.040613208
0.11299968 0.22422841 0.14541447 0.5144284 0.87202275 0.7155577 0.53485924 0.3524837
0.4309424 0.5076743 0.5048995 0.92796004 0.9368226 0.014438157 0.14395 0.74981284
0.97923046 0.48065147 0.27646315 0.35824057 0.35252059 1.1248546 0.6882901 0.13583376
0.13595651 0.24765007 0.693827 0.59882045 0.25542396 0.43422717 0.68665045 0.1703503
0.19002211 1.055148 0.98871297 0.93896955 0.7387873 0.5046872 0.51536894 0.34081435

std.constant9 f4 [128]
00000000: eb02 13bb a50b 0fbc 69b1 d73b eaae ee3b
00000010: 3c56 e33b c0e2 fa3b 2631 b139 bef6 403c
00000020: 0b40 94ba 7c9f ba3b c448 613a afae 8b3b
00000030: eca2 1d3b 99b9 d13b 9315 2abc f003 0dbb
00000040: c58f 503c d943 8cbb 6394 5c3a 8914 e03b
00000050: 7e63 e8bb d0c2 123c 3a93 203c 079e 0f3c
00000060: 8aee 1f3c 2835 3e3c 1fe4 08ba cd44 0ebc
00000070: 73b2 39bc cbd6 ca3b a31c a13a b621 fbbb
00000080: 8b39 f1bb 6279 7fbb 1623 1ebc 8d8d e13b
00000090: d238 0e3b 4d24 46bc 63ae 8dbb dc7d abb9
000000a0: 7284 3e3c e7ea 453b 5c4f e83b 7888 443c
000000b0: 47b2 98bb 11ff bf3b 83da 5f3c 39e2 38bc
000000c0: 9aef d83b 27fe 953b 3b13 dabb 0ad5 8d3b
000000d0: 9798 beb8 f924 0cbb 4d15 6dbc b970 2fbc
000000e0: 1502 21bc 866a 203c 4d94 e1bb ecb0 0cbc
000000f0: c022 97bb ec38 fd3b 5687 c93b 8383 e63b
00000100: 1d86 6339 f1bd ed3a 27b6 f0bb c2e8 fb3b
00000110: 19bf f5bb b70e cdbb 31d6 87bb e8a2 3aba
00000120: 32ba 913b 4e67 1d3c 8a1b 9dbb 35b8 643c
00000130: 70a6 edbb 3aca 3bbc 007b 9dbb 0438 203c
00000140: 1ba0 233b e35d 1bbc 4d3d 19bc d1ae 403c
00000150: b3e2 f9bb de00 d0bb c6ef 4d3b a508 0c3b
00000160: 2d80 f2bb 73b3 af3a d8c8 523b 6fa3 2c3c
00000170: 594d bc3b 7990 34bc 37b7 ce3a 3ea8 d9bb
00000180: fb77 4f3b 20f7 e2bb bf38 293c fead 03bc
00000190: bf3b 033c 1559 b739 d1c1 bcbb 9450 0b3c
000001a0: 7359 843b 6d6b dcbb 40e0 0c3c 2aec 8cba
000001b0: 5d62 0b3c 54e9 2cbb 98a5 0ebc af60 cbba
000001c0: 84ae 32bb 7605 a63a 746b 27bc 4546 1b3c
000001d0: 0582 ff3b bff7 873b 0d38 323c fb82 13bb
000001e0: e02a 2139 47ad be3b 9bed f0bb 610d 49bc
000001f0: 9b2e 063c b68f d63b 6bfe b43b ca40 e43b
-0.002243216 -0.008730804 0.0065824282 0.007284035 0.00693777 0.0076564252 0.0003379669 0.011777578
-0.001131059 0.0056952816 0.0008593912 0.0042627673 0.0024053408 0.006400299 -0.01038112 -0.002151724
0.01272959 -0.004280549 0.00084144453 0.0068383855 -0.0070919385 0.00895758 0.009800727 0.008765704
0.009761462 0.011609353 -0.0005221981 -0.008683396 -0.0113340495 0.006190156 0.001229186 -0.0076639308
-0.007361596 -0.0038982262 -0.00965192 0.0068833292 0.0021701348 -0.012093616 -0.004323767 -0.00032709434
0.011628257 0.0030199827 0.0070895385 0.011995427 -0.004659924 0.0058592637 0.013662937 -0.011284404
0.0066203596 0.0045774165 -0.0066551245 0.0043283748 -9.088328e-05 -0.0021384342 -0.0144704105 -0.0107080275
-0.009827157 0.009791022 -0.006884134 -0.008587103 -0.004612297 0.007727733 0.0061501665 0.0070347204
0.00021698368 0.0018138272 -0.007345933 0.007687659 -0.0074995873 -0.0062578577 -0.0041454067 -0.0007119612
0.004447245 0.009607149 -0.0047945427 0.013959934 -0.007252507 -0.011461789 -0.0048059225 0.00977898
0.0024967256 -0.009482834 -0.009352994 0.0117604295 -0.0076259016 -0.0063477596 0.0031423434 0.0021367457
-0.0074005337 0.001340492 0.003216317 0.0105370125 0.0057465252 -0.011020773 0.0015771155 -0.0066423705
0.0031657207 -0.0069264323 0.010328471 -0.008037088 0.00800985 0.0003497085 -0.0057604094 0.008503098
0.0040389835 -0.0067266733 0.008598387 -0.0010751535 0.008507338 -0.0026384192 -0.008706473 -0.0015516485
-0.0027264664 0.0012666422 -0.01021849 0.009477203 0.007797482 0.0041494067 0.010877621 -0.002250849
0.00015370129 0.005818996 -0.0073525435 -0.012271256 0.008189823 0.0065478934 0.005523493 0.0069657313

std.constant10 f4 [128]
00000000: 80d1 24bf 8cd0 243e 0860 febd 62a4 f9bd
00000010: 7a9e 38bf 896f cbbd a427 33bf 552e bb3b
00000020: e660 8bbf acb1 eabd e6e3 0abf 2bf4 27bf
00000030: eda9 11bf acc7 14bf e5d5 99be 2866 82bf
00000040: 9655 ae3e aa9e 2dbf cd35 20bf 3d89 fbbe
00000050: 9c8b 97be c766 7ebe 8279 b23e 971a 22be
00000060: ddc1 df3d d976 253e 333b 41be 36d4 66be
00000070: bf05 ac3d 3d98 eebe d33c f6be 5ee7 2cbf
00000080: 9a6d 23be 838d ccbe 2543 20bd d6cc e3be
00000090: 2220 29bf 5b56 9cbd 65d9 82bf 2f0d 253d
000000a0: 9249 893b befe 13be f6fe 30bc b46b c1bd
000000b0: 01df 25bf 74cf 6ebb 2918 be3d ffe2 7bbe
000000c0: 2c00 e1bd 7b12 0bbf 942d cb3d 75dc dbbe
000000d0: e14a 50bf 462d 69bf bc35 2f3e bfad a7bc
000000e0: 7249 cd3e b0a4 f93d 40dd 07bf 9e67 80bd
000000f0: c8e7 53bf 0393 96be 8d55 95be 2eb1 eabd
00000100: 3143 47bf bd20 6bbf 6831 93bd 7b99 81be
00000110: f930 f5bd 985a 4bbe 9b37 84bd 0d3d 28bf
00000120: f74f 1bbf 0c19 e6bd 7e7c a4be dadf f0bd
00000130: ca87 15bf 0336 df3d e9b1 55bf 0805 5bbd
00000140: a723 18be 7754 85bd b9d5 babd c337 5ebd
00000150: fe3f 51bc 3547 9dbe 36f6 7ebd caa6 1cbf
00000160: 795f 22bf fbf5 0abf f6af 1dbf de14 f4bd
00000170: fdbf 8dbd 6510 f33d a924 17bf aae8 d7be
00000180: 5bbc 12bf b0c8 84be 3d78 65be 5733 17be
00000190: 0fec 7f3c b99c 7dbf b4a8 24bf a668 58be
000001a0: ec70 e5bd f9e4 0dbf 3afa c7be 42b5 4dbf
000001b0: 25b3 c2be 1020 2ebb 13c4 abbd da23 25bf
000001c0: f56c 68bf 05da b9be 24be 5bbe 8757 803e
000001d0: b89c 37bf 5147 e5be 2551 b83d cb0a 73bf
000001e0: 2afd 08bf 4b77 ebbc a7c4 02be acab 8eb9
000001f0: 8a27 c7be f8d5 61bd 4246 27be 98e2 4ebd
-0.6438217 0.1609518 -0.1242066 -0.12189557 -0.72116816 -0.09933383 -0.6998236 0.0057123103
-1.0888946 -0.114596695 -0.54253995 -0.65606946 -0.5689991 -0.58117175 -0.30046 -1.0187426
0.34049672 -0.6782023 -0.62582093 -0.49128142 -0.295987 -0.24843894 0.34858328 -0.15830456
0.10925648 0.16158618 -0.18870239 -0.2254189 0.083995335 -0.46600524 -0.4809328 -0.6754054
-0.15959778 -0.39951715 -0.039126534 -0.44492215 -0.66064656 -0.076336585 -1.0222594 0.040295776
0.0041896785 -0.14452645 -0.010802975 -0.09444371 -0.647934 -0.003643957 0.09281952 -0.24598311
-0.10986361 -0.54325074 0.09920803 -0.42941633 -0.81364256 -0.91084707 0.17110342 -0.02046859
0.40095097 0.12189615 -0.53071976 -0.062697634 -0.82775545 -0.29409036 -0.29166833 -0.114595756
-0.778369 -0.9184683 -0.07187158 -0.2531241 -0.119722314 -0.19858778 -0.064559184 -0.65718156
-0.6066889 -0.11235246 -0.3212623 -0.11761446 -0.5841032 0.10898974 -0.83474594 -0.053471595
-0.1485735 -0.06510251 -0.091227956 -0.054252397 -0.012771605 -0.3071839 -0.062246524 -0.61192
-0.6342693 -0.54281586 -0.6159662 -0.119180426 -0.069213845 0.118683614 -0.59040314 -0.42169696
-0.5731866 -0.25934362 -0.22409149 -0.14765678 0.015620246 -0.99067265 -0.6431992 -0.2113367
-0.11203179 -0.5542751 -0.39058095 -0.803547 -0.380273 -0.0026569404 -0.083870076 -0.6450783
-0.90791255 -0.36299148 -0.21459252 0.25066778 -0.7172351 -0.44780973 0.08999852 -0.94938344
-0.535113 -0.028743407 -0.1277033 -0.00027212256 -0.38897353 -0.055135697 -0.16335395 -0.050509065

std.constant11 f4 [128, 6]
00000000: 945e 4ebc 11e1 d43d 8f57 bd3b 66c5 e5bc
00000010: bcfd 463d 9ed6 46bc 6eac 16be b10b 313d
00000020: cf65 51bd 6ba3 c6ba f75c 6c3d 7e45 bd3d
00000030: 56ca 013e 950b 133e 9c2a 603e 1142 f83d
00000040: 4267 2a3e 173b 643e 246d 823e 262c 413e
00000050: 0e22 723e e9be ab3e f74f c43e ef89 fa3e
00000060: 1162 c93d f56d d1bb 1133 8d3d dd18 f23d
00000070: 7dfb a73d f049 1dbc 1bf7 1c3e cf78 163e
00000080: 35a7 863d f448 cd3d 1b5c 273e f385 173e
00000090: 5dd3 cb3d ca54 1b3e e960 6e3d 21d9 c1bc
000000a0: c040 b63d ecb6 5dbd 5772 53bd d18f 87be
000000b0: f402 3abe 8711 61bd 9a0b 4f39 7f01 aabd
000000c0: 1b18 0f3e 666a f23d 2a11 8e3c 92f5 073e
000000d0: b307 97bc 5b9d d93d 2e4a 863e 8420 4ebc
000000e0: b1cb f83d 1e4d 0d3e 5392 853e 5679 3e3e
000000f0: ce49 343d 6628 633d bd84 543c 553f 983d
00000100: e5ba 9a3c 07ea 8bbd 5532 663d ffee 33bd
00000110: 3447 8a3b a21b a23d b871 f73d e086 fb3c
00000120: 027e 213d 366f fe3b 2ddb 313d 3bd4 bbb9
00000130: e3d3 f23d 1077 af3d 2b1b 8fbd a448 ed3c
00000140: fbf6 bf3b aa11 a5bd 00c0 a4bc b749 083d
00000150: fbda 52bc a2d3 57bd 8f62 23bd a2ee dbbd
00000160: fb31 0bbd bd12 60bd 562c bb3d 9a4d e73d
00000170: 9470 993c 94e7 023d 7fcd f73d 5602 553d
00000180: 9c7b 62be 6155 c9be bc36 efbc 1367 2bbe
00000190: d63b 8abe 5ca0 9abe 7dcf a73d 4d53 153e
000001a0: 668b d13d 57dd 8b3d a310 ec3c 0940 863d
000001b0: 4502 3f3d 596e cd3d 86c1 75bd fed4 783d
000001c0: f392 8bbd bf98 b73d a04b 83bd 5214 5f3d
000001d0: 8f54 a13c a3af fe3d a2e0 c53d 90ab 003c
000001e0: e001 df3c 1366 933d 75a8 963c e745 af3c
000001f0: 3f6a 09bb 8664 64bc 3194 8a3d 664a 023e
00000200: d205 1c3e 12df 983d eff9 e73d db55 a43d
00000210: 6932 2ebe 37a5 0ebe f0df f8bc 21aa 07be
00000220: a65e 4b3d 0eba 253d a76e 7a3d 9e82 f0bd
00000230: 4681 a0bd f88c 0bbe be03 483c e4fc d8bd
00000240: 34e1 b3be e49d 51be a03e 75be 5251 01be
00000250: 233b f5bd b55a 10be 14ad d8bd 1f73 1fbd
00000260: 779a 7b3d f6cc 753d 9532 593e 62b3 5c3e
00000270: eeec c7bd 2ffd 823d c7e5 8bbc 0c0a a73d
00000280: a262 40bd 1c97 b3bc 9fb5 97bd 1e98 90be
00000290: b142 5abe e4bd 4fbe 18da 57be fd41 87bd
000002a0: c77e 19bd 4cd1 963d b74b 843d 2354 d83d
000002b0: d35c 7e3d ec82 a43d fcc8 ccbd e31f 33bd
000002c0: 1fe6 0abe 4cc3 debd a8ae 03be e1c8 12bd
000002d0: c818 eb3d 01f8 dd3d e533 0a3e 2321 1ebd
000002e0: bcb4 233d 3e47 60bd beff 50bd 73cc b8bc
000002f0: 8b41 d4bc c5b2 99bc 547e 223b 7c3a 7e3d
00000300: 1802 743e 721b 3f3e da7f bb3e b052 6b3e
00000310: bd66 1f3e 5f18 f83d 7c6e d03c 30b4 ebbc
00000320: b770 ca3d 217e fa3c 20ae 01bb 95eb 2b3d
00000330: 626f 7f3e 430d 763e 08ba b43e bc20 7b3e
00000340: 9ed0 c83e 9af4 ba3e 3b9a a7ba 4ae2 d7bd
00000350: 7dd6 243c 7868 653d 6d0b c8bc 0e0d e0bc
00000360: a67a 193e 4ef8 5cbd 3052 203e 684f a23d
00000370: 6474 a8bd fade d0bc 6924 3d3e 86ec 923e
00000380: 476a 9e3e 4fda 853e 4b2d 823c 0f4a f43c
00000390: cd8b 0c3e 213f 443d 53b1 343d eb75 073d
000003a0: 430a 7cbd a8b7 703d e17f 11be 1d8d 4cbe
000003b0: 0b22 3e3e ae75 b53b 5f5c 25be 851c afb9
000003c0: bc88 eebc e0f4 0cbe 6800 95bd 7ae9 1ebe
000003d0: f56d 1abd 1f3e 113b 9234 1dbd 21be 86bc
000003e0: ed5b 4e3d a589 5c3d dc7d 793d 0bd1 d63d
000003f0: 27d6 903e 50fe 723e 2056 553e 1840 9d3e
-0.012595791 0.103944905 0.00577826 -0.028048228 0.048581824 -0.01213613 -0.14714214 0.04322404
-0.051122483 -0.0015154904 0.057705846 0.0924177 0.12674841 0.14359887 0.21891254 0.12121976
0.16640952 0.22288166 0.25473893 0.18864498 0.23645803 0.3354409 0.38342258 0.4893336
0.09833158 -0.0063912817 0.06894506 0.118211485 0.082022645 -0.009600148 0.15328638 0.14694522
0.06574861 0.1002368 0.16343729 0.14797191 0.09952424 0.15169063 0.05819789 -0.023663105
0.08899069 -0.054129526 -0.051622715 -0.2647691 -0.18165189 -0.054948356 0.0001974538 -0.083010666
0.1397404 0.118367 0.017342169 0.13277271 -0.018436288 0.10625716 0.2622847 -0.0125809945
0.12148226 0.13798949 0.260882 0.18600973 0.044015698 0.05545845 0.0129711 0.074339546
0.018887946 -0.068317465 0.056200344 -0.043929096 0.004219914 0.07915427 0.12082237 0.030703962
0.03942681 0.007764722 0.043421913 -0.00035825543 0.118568204 0.08567631 -0.06987604 0.028965302
0.0058583 -0.0806001 -0.020111084 0.033273425 -0.012869592 -0.052692063 -0.039888915 -0.10738875
-0.033983212 -0.05470537 0.09139316 0.11294098 0.01873044 0.03195913 0.12099742 0.05200418
-0.22117466 -0.3932295 -0.029200904 -0.16738538 -0.26998776 -0.3020047 0.08193872 0.14582558
0.10231666 0.068293266 0.028816527 0.065551825 0.046633024 0.10030813 -0.05999901 0.06075
-0.06815138 0.08964681 -0.06410909 0.05446274 0.019693641 0.12435844 0.09661986 0.007853404
0.027222574 0.071972035 0.018390873 0.021395637 -0.0020967869 -0.013939982 0.067665465 0.12723693
0.15236595 0.07464422 0.11326968 0.08024188 -0.17011417 -0.13930212 -0.03038022 -0.13248493
0.04965081 0.04046064 0.061140683 -0.11743663 -0.07837157 -0.13627994 0.012207923 -0.1059511
-0.35132754 -0.20470387 -0.23949671 -0.12628677 -0.1197417 -0.14097102 -0.10579887 -0.038928147
0.061426606 0.06000992 0.21210702 0.21552804 -0.097619876 0.06395947 -0.01707734 0.08156213
-0.046969064 -0.02192264 -0.07407688 -0.28241056 -0.21314503 -0.20287281 -0.2107929 -0.06604383
-0.03747442 0.07364139 0.06459754 0.10562923 0.062100243 0.08032784 -0.09999272 -0.04373158
-0.13564347 -0.10877094 -0.12859595 -0.035836104 0.11479336 0.108383186 0.13496359 -0.03860582
0.039967284 -0.05475544 -0.051025145 -0.022558426 -0.02591016 -0.018762002 0.0024794536 0.062067494
0.23828924 0.18662813 0.3662098 0.22980762 0.15566535 0.121140234 0.025443308 -0.028772444
0.0988478 0.030577721 -0.0019787624 0.041972715 0.24944833 0.24028496 0.3529818 0.24524206
0.39221662 0.3651474 -0.0012787053 -0.10541208 0.010060904 0.056007832 -0.02441951 -0.027349975
0.14988193 -0.05394774 0.15656352 0.07925302 -0.08225325 -0.025496949 0.1847092 0.28696078
0.30940458 0.2614312 0.015890738 0.02982047 0.13725205 0.047911767 0.044114422 0.03307144
-0.061533224 0.0587689 -0.14208938 -0.19975705 0.18567674 0.00553771 -0.16148518 -0.0003339985
-0.029117934 -0.13765287 -0.07275468 -0.15518752 -0.03770252 0.0022162271 -0.038380213 -0.016448082
0.050380636 0.053842206 0.060911044 0.104890905 0.28288385 0.23729825 0.20833635 0.30712962
