main/model/SOH带实时输入量化模型/滑窗24，推未来十轮/converted_model.tflite (tflite, 318128 bytes, 19 tensors)

dense_1/bias f4 [10]
0	0x3f675c82	0.9037553
1	0x3f67550e	0.9036416
2	0x3f674d1d	0.9035204
3	0x3f67455a	0.903402
4	0x3f673de1	0.90328795
5	0x3f6735ee	0.90316665
6	0x3f672d94	0.9030392
7	0x3f6725ac	0.9029186
8	0x3f671ee0	0.90281487
9	0x3f6718cb	0.90272206

dense/bias f4 [64]
0	0x3c744a0e	0.014910234
1	0xbcb2625d	-0.021775419
2	0xbc9ff110	-0.019524127
3	0xbd30848e	-0.043095164
4	0x3c848417	0.016176267
5	0x3c9d2087	0.01918055
6	0xbcb5b7eb	-0.022182425
7	0xbca4868f	-0.020083694
8	0xbd3aad63	-0.04557551
9	0xbe15581c	-0.14584392
10	0x3c3fb474	0.011700738
11	0x3c6dd639	0.014516407
12	0xbd3477f4	-0.04405971
13	0xbd83bb10	-0.06432164
14	0x3c8d3aa5	0.017239878
15	0x3c56dcbe	0.0131141525
16	0x3c9b653f	0.018969176
17	0xbd5ef2d7	-0.05443081
18	0x3c217928	0.009855546
19	0xbcbcaf3a	-0.023032773
20	0x3c4a5781	0.012349964
21	0x3c92292f	0.017841903
22	0x3c8d552d	0.017252529
23	0xbc965452	-0.018350754
24	0x3c903cea	0.017607171
25	0x3c6060d5	0.013694962
26	0x3c42b41c	0.011883762
27	0xbcd637de	-0.026149686
28	0x3c644154	0.013931591
29	0xbd07372b	-0.033011597
30	0xbc8fff35	-0.017577747
31	0x3c82ef10	0.015983135
32	0x3c9933ec	0.018701516
33	0xbd969091	-0.073517926
34	0xbca67e17	-0.020323796
35	0xbda1a0d6	-0.07892005
36	0xbdedeb93	-0.11617198
37	0xbc9e34d5	-0.019312302
38	0xbca29da3	-0.019850558
39	0xbcf56f16	-0.029960196
40	0x3c4c7817	0.0124798035
41	0x3c90cd5a	0.017676044
42	0xbd1910af	-0.037369426
43	0xbd81113e	-0.06302117
44	0xbc903a79	-0.017606007
45	0xbcb87750	-0.02251783
46	0xbc7aae79	-0.015300387
47	0x3c8eb6b0	0.017421097
48	0xbc9e42ab	-0.0193189
49	0xbc8968e1	-0.016773643
50	0x3c8cd931	0.017193409
51	0x3c85b070	0.016319484
52	0xbc778e43	-0.015109601
53	0xbcd378c0	-0.025814414
54	0x3c8ab568	0.016932204
55	0xbc82ee84	-0.015982874
56	0x3c82d8f9	0.015972601
57	0xbcc5ec44	-0.024160512
58	0x3c905d66	0.01762266
59	0x3c84865f	0.016177354
60	0xbcacf81c	-0.021114402
61	0x3c28301f	0.010265379
62	0x3c8b70fd	0.01702165
63	0xbd109526	-0.03529849

std.constant3 f4 [128, 128]
0	0xbd733531	-0.0593769
1	0x3c8c5bf7	0.017133696
2	0xbd8dc2c0	-0.06921911
3	0xbcb84958	-0.02249591
4	0xbc8a8d6e	-0.016913142
5	0xbcf40fb9	-0.029792653
6	0xbc4ba1dc	-0.012428727
7	0xbd4450f2	-0.047928758
8	0x3b333937	0.0027347335
9	0x3d5e8a5d	0.054331172
10	0x3bcbdb79	0.0062212315
11	0x3da66a29	0.08125717
12	0x3d2a0643	0.041509878
13	0x3a99b302	0.0011726322
14	0x3c55815b	0.013031329
15	0x3dc730db	0.09726115
16	0x3d607ce3	0.0548066
17	0x3b206f93	0.0024480566
18	0x3c027484	0.00796235
19	0x3d835349	0.0641237
20	0xbb32c9dc	-0.0027280962
21	0x3d19e4bc	0.037571654
22	0x3d23ebe9	0.040019903
23	0x3d3140a9	0.043274555
24	0x3ca16355	0.019700686
25	0x3d6d18c5	0.05788495
26	0x3d4bc0ed	0.049744535
27	0x3d8ea375	0.06964771
28	0x3d939839	0.072067685
29	0xbd23ab5a	-0.039958335
30	0xbb4a20cd	-0.0030842305
31	0xbd2e5833	-0.042564582
32	0xbd262812	-0.040565558
33	0x3c38f834	0.011289645
34	0x3bd64142	0.006538541
35	0x3dad9f23	0.084776185
36	0x3a5ea302	0.0008492918
37	0xbdc0f93f	-0.0942254
38	0x3d0852d7	0.033282127
39	0xbd9299eb	-0.07158264
40	0xbcae1047	-0.021247996
41	0xbcdb7c1a	-0.026792575
42	0x3aa0e6d3	0.0012275822
43	0x3da4eed6	0.08053367
44	0xbd964a76	-0.07338421
45	0xbd33a400	-0.043857574
46	0xbd0a151d	-0.03371154
47	0xbb89cf38	-0.0042056106
48	0x3d77e2e6	0.06051912
49	0x3cd0fe99	0.025512027
50	0x3d0e8aa5	0.03480019
51	0x3d9b1734	0.07572785
52	0xbb3ac234	-0.0028497102
53	0x3bccd93e	0.006251483
54	0xbcbdc8a4	-0.023166962
55	0xbc75f98d	-0.015013111
56	0xbd3e6f62	-0.04649294
57	0xbda41370	-0.0801152
58	0x3d093075	0.033493478
59	0xbad46ed7	-0.0016207349
60	0xbb8d5187	-0.0043126973
61	0xbd69f6f7	-0.05712029
62	0xbcaff479	-0.021478878
63	0xbd22ba71	-0.039728586
64	0xbab0b8e5	-0.0013482837
65	0xbd535539	-0.051594947
66	0x3c8480e5	0.016174743
67	0x3d89aec1	0.06722785
68	0x3d28c3f8	0.041202515
69	0xbd0a3c15	-0.033748705
70	0x3d5fa7f4	0.054603532
71	0xbd54012a	-0.051758923
72	0xbd243837	-0.040092673
73	0xbd4e2fc8	-0.050338537
74	0xbd2cd7b5	-0.0421979
75	0xbd118d82	-0.035535343
76	0xbb82ef57	-0.0039958167
77	0x3c5046a8	0.012712158
78	0x3d5c0779	0.053718064
79	0xbd2b5428	-0.041828305
80	0xbd4895ca	-0.048970975
81	0xbe05c423	-0.13063101
82	0x3d87a02f	0.066223495
83	0xbd4e0e08	-0.05030635
84	0x3c846443	0.01616109
85	0xbd8c571c	-0.06852552
86	0x3c064971	0.008196221
87	0xbd1d23c8	-0.0383642
88	0x3daec832	0.08534278
89	0xbd7c94f2	-0.061665483
90	0xbc044291	-0.008072511
91	0xbcaf8328	-0.021424845
92	0x3d0c6025	0.034271378
93	0x3c7b96a0	0.015355736
94	0xbd22b48a	-0.039722957
95	0xbcce80d9	-0.025207924
96	0xbc263152	-0.010143595
97	0xbd03d180	-0.032182217
98	0x3c701d7b	0.014655466
99	0x3d16183d	0.03664421
100	0x3c4cb92b	0.012495319
101	0xbd4b4136	-0.049622737
102	0x3d26dc6c	0.040737554
103	0xbbf88fd2	-0.007585504
104	0xbcd51d56	-0.026014965
105	0x3c5cedaa	0.013484398
106	0xbd112a23	-0.035440575
107	0xbd9b3f32	-0.07580413
108	0x3d4dbc16	0.0502282
109	0x3d812180	0.06305218
110	0x3d2bee81	0.041975502
111	0x3d6ba7fd	0.057533253
112	0x3d1c7188	0.03819421
113	0xbc6337c1	-0.013868273
114	0xba6bd182	-0.00089957577
115	0x3d1bb130	0.038010776
116	0x3d0c2a8d	0.034220267
117	0xbcccdf39	-0.025008785
118	0xbbb1add2	-0.0054223323
119	0x3d505122	0.050858624
120	0xbd2b91ed	-0.041887213
121	0x3d929405	0.07157139
122	0x3d289e15	0.041166384
123	0x3d957c3d	0.07299087
124	0xbc78e50b	-0.015191327
125	0x3c3c6f96	0.011501214
126	0x3c85549c	0.016275696
127	0xb80b7451	-3.324851e-05
128	0x3d3aa380	0.045566082
129	0xbc30f204	-0.0107998885
130	0x3cf9b445	0.030481467
131	0x3d2b0c38	0.0417597
132	0x3c894e61	0.016761007
133	0x3b8ef4aa	0.0043626623
134	0xbd578f3f	-0.052626844
135	0xbb1783ca	-0.0023119324
136	0x3c834fd3	0.016029274
137	0x3c55196a	0.0130065475
138	0x3d598e8f	0.05311447
139	0x3ce7e49d	0.028307253
140	0xbbedfeab	-0.007263025
141	0xbdb9473e	-0.090467915
142	0x3d5c5ea6	0.0538012
143	0x3dd43e72	0.10363473
144	0xbdd65de5	-0.10467128
145	0xbce8c4dd	-0.028414184
146	0xbc9cc8fd	-0.019138807
147	0x3e0de723	0.13857703
148	0x3dca3681	0.09873677
149	0xbd58d021	-0.052932862
150	0x3c231b3f	0.009955226
151	0x3cef9176	0.029244166
152	0xbb32cc9c	-0.0027282601
153	0xbda61ea4	-0.08111313
154	0xbd2756d9	-0.04085431
155	0x3c5c68ba	0.013452703
156	0xbd6de5b5	-0.058080394
157	0x3d72ac2a	0.05924622
158	0x3cafb317	0.021447701
159	0x3caa6fd9	0.020805286
160	0x3c82fe10	0.015990287
161	0x3c8d9c62	0.017286483
162	0x3d32d6fa	0.04366205
163	0x3d667340	0.056262255
164	0xbd8950c9	-0.06704862
165	0xbd83f5bc	-0.064433545
166	0xbaf2f18d	-0.0018535123
167	0x3c54e9a9	0.012995162
168	0xbd4e2195	-0.050324995
169	0x3d1b9586	0.037984394
170	0x3d670e78	0.056410283
171	0xbca4ed1e	-0.020132598
172	0x3d42e028	0.047577053
173	0xbb1a7f93	-0.0023574575
174	0x3cb0346b	0.02150937
175	0x3c9b6363	0.01896829
176	0xbda587f2	-0.0808257
177	0xbd73151d	-0.059346307
178	0x3d1e7f4e	0.038695626
179	0x3d639bf7	0.05556866
180	0xbdacf375	-0.08444873
181	0x3ac25f98	0.0014829515
182	0x3bd0001c	0.0063476693
183	0xbdf7ef2e	-0.12106167
184	0xbb4ca7e4	-0.0031228
185	0x3c575bb8	0.013144426
186	0x3ccaa14f	0.024735121
187	0x3d1949b6	0.03742381
188	0x3d6466e4	0.055762187
189	0xbdb0f741	-0.0864091
190	0x3dafd85d	0.0858619
191	0xbb503a99	-0.0031773208
192	0x3ddcefaa	0.107879
193	0xbcc29c03	-0.023756033
194	0x3dab8e59	0.0837676
195	0x3d3f09dd	0.046640266
196	0x3cf3d741	0.029765727
197	0x3cc4a60a	0.024004955
198	0xbc8df79b	-0.017329982
199	0xb8fe9f2a	-0.000121413104
200	0x3d029f80	0.031890392
201	0xbd8cdb45	-0.0687776
202	0x3d021eb6	0.03176757
203	0x3df5e0ec	0.12005791
204	0xbc7fdd5b	-0.01561674
205	0x3cb25a9c	0.021771722
206	0x3cfea734	0.031085588
207	0x3d7e4edf	0.062086936
208	0xbc948f1c	-0.018134646
209	0x3d0821da	0.03323541
210	0xbd83e143	-0.0643945
211	0xbd006403	-0.03134538
212	0x3c61744f	0.01376064
213	0xbd2aae01	-0.04166985
214	0x3c752476	0.014962306
215	0x3d53dbcc	0.051723287
216	0x3d4e2e1a	0.050336935
217	0xbd3a336d	-0.0454592
218	0xbc4ffc4b	-0.012694429
219	0xbd051ce6	-0.032498263
220	0x3d34a43d	0.044101942
221	0xbd7e6669	-0.062109385
222	0xbdec89b3	-0.115497015
223	0x3e3004f9	0.17189397
224	0x3ce21db0	0.027602047
225	0x3cf26402	0.029588703
226	0x3d1e570d	0.038657237
227	0x3baf124f	0.0053427587
228	0xbddda602	-0.10822679
229	0x3cae1f7e	0.021255251
230	0x3d9e9abf	0.07744359
231	0x3df201a5	0.1181672
232	0x3d950c52	0.072777405
233	0x3d3dda12	0.046350546
234	0x3c147893	0.00906195
235	0xbcfe5c70	-0.031049937
236	0x3d43b932	0.047784038
237	0xbd41ca03	-0.047311794
238	0x3cb8ca2a	0.022557337
239	0x3cdf2f8d	0.027244354
240	0xbb7620d2	-0.0037556184
241	0xbda44cbd	-0.08022449
242	0x3c56bf21	0.013107092
243	0x3d07665e	0.03305661
244	0x3c9e840e	0.019350078
245	0xbdea337a	-0.114355996
246	0x3bb09731	0.005389117
247	0x3d016fea	0.03160087
248	0xbd8728e7	-0.065995984
249	0x3dbe6c70	0.092980266
250	0xbcebaf8b	-0.028770229
251	0xbd4fc003	-0.050720226
252	0xbd062013	-0.032745432
253	0x3d0fad3e	0.035077326
254	0xbd92eb4f	-0.07173788
255	0xbdd54ceb	-0.104150616

std.constant4 f4 [128, 128]
0	0xbce589d5	-0.028019825
1	0xbd06aa4c	-0.03287725
2	0x3b930821	0.004487053
3	0xbd4b0b4e	-0.049571328
4	0x3d3a8b95	0.045543272
5	0xbc9157d0	-0.017742068
6	0x3ce90a4f	0.028447298
7	0xbc82cf41	-0.015967967
8	0x3d7983d2	0.06091673
9	0xbd3d1903	-0.04616643
10	0x3c540ba0	0.012942225
11	0xbd353282	-0.04423762
12	0xbcf76785	-0.03020073
13	0x3c66615a	0.014061296
14	0xbdc25aa6	-0.09489946
15	0x3c4d9f8b	0.012550245
16	0x3b7fcf7a	0.0039033578
17	0xbc11beae	-0.008895559
18	0x3c3d9544	0.011571232
19	0x3d53213c	0.051545367
20	0x3d7e486d	0.06208079
21	0xbd1fe78a	-0.039039172
22	0x3da585d8	0.08082169
23	0xbcd0a5dc	-0.025469713
24	0xbb18c453	-0.0023310378
25	0x3d7f3278	0.06230399
26	0xbdb59c1d	-0.08867667
27	0x3c8e4562	0.017367069
28	0x3c394204	0.011307243
29	0xbd1c85e2	-0.038213618
30	0x3cde17c0	0.027110934
31	0xbd151e87	-0.036406066
32	0x3a7203b0	0.0009232117
33	0xbd57eb1c	-0.052714452
34	0x3d72479a	0.059150316
35	0xbcdd1cf7	-0.02699135
36	0xbc3b7fca	-0.0114440415
37	0x3d7ac4d1	0.061222855
38	0x3d60c823	0.054878365
39	0xbd0d21d1	-0.034456078
40	0x3d262d4e	0.04057055
41	0xbc01c38f	-0.00792016
42	0xbb872570	-0.004124336
43	0xbd120f60	-0.035659194
44	0xbc4788e1	-0.012178631
45	0x3d92135b	0.07132598
46	0xbd04409a	-0.03228817
47	0xbc1413eb	-0.009037952
48	0x3d32f01a	0.04368601
49	0xbc4cd705	-0.0125024365
50	0xbc0f0c2e	-0.008730931
51	0xbc66675b	-0.014062728
52	0xbce27b09	-0.027646558
53	0xbcfbd347	-0.030740393
54	0xbc99daa4	-0.018781014
55	0x3b24b261	0.0025130736
56	0xbc58ffd4	-0.013244588
57	0xbd93c3a6	-0.07215051
58	0x3d57638e	0.052585177
59	0xbde777cf	-0.113021486
60	0x3d9cafc6	0.076507136
61	0xbb80f177	-0.003935035
62	0x3d9234a2	0.07138945
63	0x3d35d5ad	0.04439323
64	0x3c65460c	0.013993751
65	0xbd726020	-0.059173703
66	0x3d40437c	0.046939358
67	0xbdc911e9	-0.09817869
68	0x3c8b817f	0.017029522
69	0xbd23119c	-0.039811715
70	0x3d64032e	0.055667095
71	0x3d03f484	0.03221561
72	0x3d8ecc67	0.069725804
73	0xbc4ae23f	-0.012383043
74	0xbca4d83d	-0.020122642
75	0x3db00a0c	0.08595666
76	0x3c420bb8	0.011843614
77	0xbda99470	-0.08280265
78	0xbc80b11d	-0.015709454
79	0x3caf3967	0.021389676
80	0xbc85b959	-0.016323732
81	0x3d17ed44	0.03709151
82	0xbcf4d3a6	-0.029886078
83	0x3cd8c8e5	0.026462981
84	0x3c55d22a	0.013050595
85	0xbd24ad39	-0.04020426
86	0xbd9b36d8	-0.0757882
87	0x3d1fd9aa	0.03902594
88	0xbbf77af5	-0.0075524994
89	0x3d8c0513	0.06836905
90	0xbd8105c9	-0.062999316
91	0xbd602ddc	-0.054731235
92	0x3c086d53	0.008326846
93	0xbc3f8783	-0.011690023
94	0xbd704e6b	-0.058668535
95	0xbbcc2149	-0.006229554
96	0xbd278420	-0.04089749
97	0xbd212ccb	-0.03934936
98	0xbde93d24	-0.11388615
99	0xbd6156f8	-0.05501458
100	0xbd3249b7	-0.04352733
101	0xbccde9ce	-0.0251359
102	0x3d9366ba	0.07197328
103	0xbc4fcbe2	-0.012682887
104	0x3cdb1cd7	0.02674715
105	0x3d93c9de	0.072162375
106	0xbc7a31a3	-0.015270623
107	0x3b938418	0.004501831
108	0x3d330ebe	0.04371523
109	0x3d57932d	0.052630592
110	0xbd6bfa19	-0.05761156
111	0xbdcd0735	-0.1001114
112	0x3d646b02	0.055766113
113	0xbd2c91bb	-0.042131167
114	0xbd43db7d	-0.047816742
115	0xbcccfba9	-0.025022345
116	0xbd861cb5	-0.06548444
117	0xbd2700c7	-0.040772226
118	0x3c368e46	0.011142319
119	0x3d2f39cb	0.042779725
120	0xbc813877	-0.015773995
121	0x3d8136a8	0.06309253
122	0x3d683bef	0.056697782
123	0x3cca0fd0	0.024665743
124	0x3b872495	0.004124234
125	0x3cede05c	0.029037647
126	0x3d8acd14	0.06777397
127	0xbc3bff29	-0.011474409
128	0x3cac6f92	0.021049295
129	0x3e11b8d6	0.14230666
130	0x3d0ac34e	0.033877663
131	0xbd02fe97	-0.031981077
132	0x3c74adb2	0.01493399
133	0xbbb9094e	-0.005646861
134	0xbd257809	-0.040397678
135	0x3d67bd1c	0.056576833
136	0x3c562795	0.0130709605
137	0x3b5ea486	0.0033972575
138	0xbd04e05b	-0.032440525
139	0xbd03df93	-0.03219564
140	0xbceae2d9	-0.028672623
141	0x3c7f9148	0.015598603
142	0x3a5d9ed9	0.0008454151
143	0x3d8ff76b	0.07029613
144	0xbd5c0ef4	-0.053725198
145	0xbd54ef5e	-0.05198609
146	0x3d19ddb0	0.037564933
147	0x3dc6bdd3	0.09704175
148	0xbd24c40a	-0.04022602
149	0x3d197f53	0.03747494
150	0xbc90c016	-0.017669719
151	0xbc243907	-0.010023362
152	0xbcd7f87f	-0.02636361
153	0xbca1d9a3	-0.019757098
154	0x3d5d6969	0.054055605
155	0x3d70ccd4	0.05878909
156	0xbd52e60c	-0.05148892
157	0x3d8ad05d	0.067780234
158	0x3c572bcb	0.013133
159	0x3dd8b039	0.10580487
160	0xbc04d7d3	-0.008108097
161	0x3da7be58	0.08190602
162	0x3da10da6	0.07863931
163	0xbd590955	-0.052987415
164	0x3d41523c	0.047197565
165	0xbbb3e2d0	-0.0054896846
166	0xbda0def9	-0.07855029
167	0x3c2d5626	0.010579621
168	0x3d5ee31f	0.05441582
169	0x3d8c3ee5	0.06847934
170	0xbd541593	-0.051778387
171	0xbb7d5a08	-0.00386584
172	0xbc1ec783	-0.009691122
173	0xbda7f31d	-0.08200667
174	0x3bf8dbfb	0.007594583
175	0xbc2bff69	-0.010497906
176	0xbd03824a	-0.032106675
177	0x3d014b6c	0.03156607
178	0x3c5edd5a	0.013602579
179	0x3d010183	0.031495582
180	0xbdca3be1	-0.09874702
181	0xbc1ea66c	-0.009683233
182	0x3d2287f0	0.03968042
183	0xbbcd7546	-0.0062700836
184	0xbc598d59	-0.013278329
185	0xbd541a26	-0.05178275
186	0x3cd284d8	0.02569811
187	0x3c72042b	0.0147715015
188	0xbc85a002	-0.01631165
189	0xbdc83213	-0.09775176
190	0x3ab5b699	0.0013863622
191	0xbd4552e0	-0.04817474
192	0x3d026276	0.03183218
193	0x3c0500c3	0.008117857
194	0x3b8d5d06	0.004314068
195	0x3d334dd4	0.043775395
196	0xbdb028c5	-0.08601526
197	0xbcf592f7	-0.029977305
198	0x3d2e4cb8	0.042553633
199	0x3d44a76b	0.048011225
200	0xbc1f3bab	-0.009718816
201	0x3d80f22f	0.06296193
202	0xbde2955d	-0.11063645
203	0xbc367137	-0.011135391
204	0xbc9a108a	-0.018806715
205	0xbdd8581f	-0.10563683
206	0x3d2a0b60	0.041514754
207	0x3d684277	0.05670401
208	0x3d4ef25c	0.0505241
209	0xbc9ef99d	-0.019406134
210	0x3d6b16c3	0.057394754
211	0xbbc13649	-0.005896364
212	0xbd87e920	-0.06636262
213	0xbd241c33	-0.040065955
214	0x3df932f1	0.121679194
215	0x39861beb	0.00025579272
216	0x3c04b569	0.008099892
217	0xbd16a225	-0.036775727
218	0x3bac59f8	0.0052597485
219	0xbdd0ebfa	-0.10201259
220	0xbd947249	-0.07248361
221	0xbdccdb2c	-0.10002741
222	0xbd19e73c	-0.037574038
223	0x3b49815c	0.003074727
224	0x3cfb37e3	0.030666297
225	0xbcdddea0	-0.027083695
226	0x3c14668d	0.009057653
227	0xbd52cbcc	-0.051463887
228	0xbd8bc16b	-0.06824001
229	0x3bae892a	0.00532641
230	0x3ce13d80	0.027495146
231	0x3dc04bbe	0.09389447
232	0x3c5befd0	0.013423875
233	0x3d2c50f9	0.04206941
234	0x3e688607	0.22707377
235	0xbd4a4440	-0.049381495
236	0xbd88a9eb	-0.06673034
237	0x3d4e09f3	0.050302457
238	0xbd40af1f	-0.04704201
239	0x3af62a62	0.0018780942
240	0x3c0e3c7c	0.008681413
241	0x3d15630c	0.03647141
242	0xbc0f371b	-0.0087411655
243	0x3c9b27c2	0.018939856
244	0xbc48afdd	-0.01224896
245	0xbda49d01	-0.080377586
246	0xbce528ee	-0.027973618
247	0x3d10b1a7	0.035325672
248	0x3c6e91fa	0.014561171
249	0x39905ee3	0.00027536516
250	0xbd40755e	-0.04698693
251	0x3c50c7ac	0.012742918
252	0x3b1faaf4	0.002436337
253	0xbd83cfd3	-0.06436124
254	0xbd4cfc90	-0.05004555
255	0x3bd0caca	0.0063718306

std.constant5 f4 [128, 128]
0	0xbf3c13d5	-0.7346776
1	0x3d1b625b	0.037935596
2	0xbc5618f6	-0.013067475
3	0x3e0ae2f2	0.13563135
4	0x3df74992	0.12074579
5	0x3d40c4fe	0.047062866
6	0x3d51ee0b	0.051252406
7	0xbde5b740	-0.11216593
8	0xbdebadbf	-0.11507749
9	0x3b695794	0.003560518
10	0xbe2fd971	-0.17172791
11	0xbb11bd8d	-0.0022238225
12	0x3d4d874b	0.050177854
13	0x3cee75c3	0.029108888
14	0x3dfaeff3	0.12252798
15	0x3d3dc050	0.04632598
16	0xbd4466eb	-0.047949713
17	0xbdae58af	-0.08513009
18	0xbd46a2fe	-0.048495285
19	0x3d3c2f2d	0.045943428
20	0xbd622e07	-0.055219676
21	0x3daac9fa	0.08339305
22	0xbb2d0000	-0.0026397705
23	0xbda2eca4	-0.07955292
24	0xbd8bc191	-0.06824029
25	0x3ce086c1	0.027408006
26	0xbcb475f1	-0.022028895
27	0xbcf06229	-0.029343681
28	0x3cfbc071	0.030731412
29	0xbcd0324c	-0.025414608
30	0x3c9a60c3	0.018844968
31	0xbd3e47e1	-0.046455268
32	0xbd34a09b	-0.044098478
33	0x3e26c342	0.16285422
34	0x3da8c6d5	0.08241049
35	0xbd1cb144	-0.03825499
36	0x3dd1daf7	0.10246842
37	0xbd699b59	-0.057032917
38	0xbdbb90d0	-0.0915848
39	0xbd3999a0	-0.045312524
40	0x3d03a0c5	0.032135744
41	0xbd0671d8	-0.032823414
42	0x3db8dd75	0.090266146
43	0xbda4a58e	-0.080393896
44	0xbdd01ede	-0.101621374
45	0x3d9084fa	0.07056613
46	0xbde17d36	-0.1101021
47	0x3e5b47e1	0.21414138
48	0xbd8fe6aa	-0.070264176
49	0x3d876bec	0.06612381
50	0xbba9c820	-0.0051813275
51	0x3ce41780	0.027843237
52	0x3c93558c	0.017985128
53	0xbccaf683	-0.02477575
54	0xbc927920	-0.017880023
55	0x3d1f2673	0.038855027
56	0x3cfb6b47	0.030690802
57	0x3aad89fe	0.0013239977
58	0xbd077a20	-0.03307545
59	0xbdb005a1	-0.08594824
60	0x3d4c71d1	0.04991323
61	0xbbf9377e	-0.007605492
62	0xbdd4b2af	-0.10385644
63	0x3e0eacbf	0.13933085
64	0xbd5cabac	-0.053874657
65	0xbd27f5c3	-0.04100586
66	0x3cab429f	0.02090579
67	0xbdb5e655	-0.08881823
68	0x3e0b18b0	0.13583636
69	0xbddb6b64	-0.107138425
70	0xbc0019a7	-0.007818616
71	0xbd8228ce	-0.06355439
72	0xbd5d95fc	-0.054098114
73	0x3d830d06	0.063989684
74	0x3e0a00d3	0.13476877
75	0x3d8bebc7	0.0683208
76	0xbc947d9f	-0.018126307
77	0x3c971ed4	0.018447317
78	0x3d95c65d	0.073132254
79	0xbd8d6104	-0.0690327
80	0x3aedbf6b	0.0018138712
81	0xbdbf5514	-0.09342399
82	0x3d825eb0	0.063657165
83	0xbda11e44	-0.07867101
84	0x3dab0db4	0.08352223
85	0xbd601199	-0.054704282
86	0xbd2cabba	-0.04215596
87	0xbdc6fc33	-0.09716072
88	0x3d8d9d49	0.069147654
89	0x3d001342	0.031268366
90	0xbd9dd25a	-0.07706137
91	0xbdf918a1	-0.12162901
92	0xbcb932aa	-0.022607166
93	0x3d005d96	0.03133925
94	0x3b4f3281	0.0031615796
95	0xbc49acf4	-0.012309302
96	0x3daaabb0	0.08333528
97	0x3da8ba1c	0.082386225
98	0x3d82e8c1	0.063920505
99	0x3d09f780	0.0336833
100	0xbd9fdf41	-0.07806254
101	0xbda321ff	-0.079654686
102	0xbe03a44f	-0.12855648
103	0xbd9b95d9	-0.075969405
104	0xbd35a439	-0.044346068
105	0xbc30ec03	-0.010798457
106	0x3d553e0f	0.052061137
107	0x3dfdb919	0.1238882
108	0xbba82176	-0.005130942
109	0x3a4924ea	0.0007673042
110	0xbcfe515a	-0.03104465
111	0x3d9a69e1	0.07539726
112	0x3e447293	0.19184332
113	0xbab2d123	-0.001364265
114	0xbd492de7	-0.04911604
115	0xbb2935f1	-0.0025819505
116	0xbd13a0ce	-0.036042027
117	0x3bee6f14	0.007276425
118	0x3d6e9acd	0.0582531
119	0xbd1cab34	-0.03824921
120	0x3dd995cb	0.10624274
121	0xbbec84bd	-0.007217972
122	0xbdf00c91	-0.11721147
123	0x3e2cd06c	0.16876382
124	0xbdb9f1e3	-0.09079339
125	0xbcc04dc0	-0.023474574
126	0xbca78030	-0.020446867
127	0x3c74b476	0.014935603
128	0xbd945351	-0.07242454
129	0x3d85e2fa	0.06537433
130	0xbd98c61c	-0.07459661
131	0x3e331cee	0.17491505
132	0x3dba8af4	0.091085345
133	0x3da4cebc	0.08047244
134	0xbd6ad536	-0.05733224
135	0xba9b7dd6	-0.0011863064
136	0xbca6c2b3	-0.020356512
137	0xbe66524e	-0.22492334
138	0xbd284da0	-0.041089654
139	0xbd73b8d0	-0.059502423
140	0xbdb8df83	-0.090270065
141	0x3d921b1c	0.07134077
142	0x3b3f29c4	0.0029169181
143	0xbd25fd55	-0.0405248
144	0xbd78e291	-0.060762946
145	0x3d10ff64	0.03539981
146	0xbc708e98	-0.0146824345
147	0x3e260062	0.16211084
148	0x3cdae727	0.02672155
149	0xbbaadb86	-0.0052141575
150	0x3c63d879	0.013906592
151	0x3d53189c	0.05153714
152	0xbc77ba48	-0.0151200965
153	0xbd65a375	-0.056064088
154	0x3d0e2225	0.03470053
155	0xbda5b526	-0.08091192
156	0xbd86230a	-0.06549652
157	0x3d955783	0.07292082
158	0x3c0d85f5	0.008637895
159	0x3d554885	0.052071113
160	0x3cd30a24	0.025761671
161	0xbcfe1051	-0.03101364
162	0xbc6c1663	-0.014409634
163	0xbd52141a	-0.0512887
164	0xbd7f470d	-0.06232362
165	0xbcc77fa8	-0.024352863
166	0xbdb67e2a	-0.08910783
167	0xbda3324b	-0.07968577
168	0x3db46017	0.0880739
169	0x3db8ea8c	0.09029111
170	0xbd62bc94	-0.055355623
171	0xbe15cfd1	-0.14630057
172	0xbd71bf8e	-0.05902057
173	0xbcdfd29d	-0.027322108
174	0xbd836cde	-0.06417249
175	0xbd4608f9	-0.0483484
176	0x3d0319ef	0.032007154
177	0x3e3d6b14	0.18497878
178	0x3dafebf8	0.08589929
179	0x3e181819	0.14852943
180	0xbe2d5574	-0.16927129
181	0xbb071777	-0.0020613351
182	0xbda3bdc9	-0.07995183
183	0xbd2dcef8	-0.04243371
184	0xbd705d74	-0.058682874
185	0x3b71c816	0.0036892942
186	0xbd1d2863	-0.038368594
187	0xbcc59c65	-0.024122426
188	0x3d932888	0.07185465
189	0xbdcaeec0	-0.09908819
190	0xbd40ef94	-0.04710348
191	0x3d889cee	0.06670557
192	0x3dbcc9e8	0.09218198
193	0x3d92fa08	0.07176596
194	0xbdffbce1	-0.12487198
195	0x3dc0117f	0.09378337
196	0x3c8f8ca4	0.017523117
197	0x3d916b8a	0.071005896
198	0x3d4712fe	0.048602097
199	0xbd2fb601	-0.04289818
200	0xbcb64ce0	-0.022253454
201	0xbc4701af	-0.0121463975
202	0x3db8e522	0.090280786
203	0x3d8b511b	0.06802579
204	0x3e0ae411	0.13563563
205	0xbd6e727a	-0.058214642
206	0x3c995995	0.018719474
207	0x3de47f01	0.111570366
208	0x3def6858	0.11689824
209	0x3dacc013	0.08435073
210	0xbd758874	-0.059944585
211	0xbd471872	-0.048607297
212	0xbd4a9ac1	-0.04946399
213	0xbd6399c6	-0.05556657
214	0x3d26cf43	0.040725004
215	0x3cc79476	0.024362784
216	0xbc693a11	-0.0142350355
217	0xbddb73fe	-0.10715483
218	0x3cdd67af	0.02702698
219	0x3d52b983	0.05144645
220	0x3d728ee1	0.05921829
221	0xbd2d0bc0	-0.042247534
222	0x3d6c3f7a	0.057677723
223	0x3baad24b	0.005213057
224	0xbd15c2aa	-0.0365626
225	0x3d929979	0.07158179
226	0xbdd66056	-0.10467593
227	0x3cd68f3d	0.026191348
228	0x3d00d90e	0.031457
229	0x3d9db2fb	0.077001534
230	0xb82ef32f	-4.1711315e-05
231	0xbd89bf48	-0.06725937
232	0x3d2e6c52	0.04258377
233	0x3d368206	0.044557594
234	0x3d3b00ec	0.045655176
235	0xbe2b5e3e	-0.1673517
236	0x3d2485ec	0.04016678
237	0xbc241244	-0.0100141205
238	0x3e08b154	0.13348895
239	0xbd2e23ef	-0.042514738
240	0xbdbfd3c5	-0.09366564
241	0xbd92f8e7	-0.071763806
242	0xbd3898a7	-0.045067456
243	0xbcf17c93	-0.029478347
244	0x3d6e4b3b	0.058177214
245	0xbe117731	-0.14205624
246	0xbbb30aff	-0.0054639573
247	0xbd41c8d6	-0.047310673
248	0xbcd8e636	-0.02647696
249	0x3de5cd53	0.11220803
250	0x3d98c6bd	0.07459781
251	0xbcc09684	-0.023509271
252	0xbd53fdfe	-0.051755898
253	0x3d1fe142	0.039033182
254	0xba7f8297	-0.00097469374
255	0xbc092a58	-0.008371912

std.constant6 f4 [128, 128]
0	0x396fbecc	0.00022863894
1	0x3d871313	0.06595435
2	0xbc7cd51c	-0.015431669
3	0xbcc1bb6d	-0.023648942
4	0x3cfed1bd	0.03110587
5	0xbbc19e00	-0.0059087276
6	0xbd297930	-0.04137534
7	0xbd843446	-0.06455283
8	0xbbc6beef	-0.0060652415
9	0xbc688442	-0.014191689
10	0xbaaa55ec	-0.0012995577
11	0x3d0033b4	0.031299308
12	0x3be1edd2	0.0068948055
13	0xbb871006	-0.004121783
14	0xbca97911	-0.020687612
15	0x3d2946e7	0.041327383
16	0xbd02fd22	-0.031979688
17	0xbd10f2ca	-0.03538779
18	0xbcb577a3	-0.022151774
19	0x3b951502	0.0045496235
20	0xbcf95f5e	-0.030440982
21	0xbd37b2ed	-0.04484837
22	0xbd003022	-0.031295903
23	0xbcf1ab5b	-0.029500654
24	0x3c91e976	0.017811518
25	0x3d1a2099	0.037628744
26	0x3db38712	0.08765997
27	0xbc6a0f42	-0.014285864
28	0xbd2338db	-0.039849143
29	0xbd13dfc7	-0.036102083
30	0xbc355d6d	-0.011069638
31	0x3bb8bf48	0.005638037
32	0x3de40f9e	0.11135791
33	0xbc1744d4	-0.0092327185
34	0x3c584105	0.013199096
35	0xbc13d8fc	-0.009023901
36	0x3d78e5ad	0.06076591
37	0x3c6b1e6a	0.014350513
38	0x3d1f5741	0.03890157
39	0xbd349e27	-0.04409614
40	0x3d6a164d	0.057150174
41	0xbd3d8f3b	-0.046279173
42	0x3c86ae22	0.016440455
43	0xba92cc54	-0.001119981
44	0x3d495a50	0.049158394
45	0x3ce8d460	0.02842158
46	0xbd4000c3	-0.046875726
47	0xbd3dbafb	-0.046320897
48	0xbc49369a	-0.012281084
49	0x3cdada4b	0.026715418
50	0x3d217435	0.039417464
51	0xbc9176fe	-0.017756935
52	0x3cec0e14	0.028815307
53	0x3d5261a9	0.051362667
54	0x3d0dbdb3	0.03460474
55	0xbacb6065	-0.0015516399
56	0x3d61b850	0.055107415
57	0xbdbc0a46	-0.09181647
58	0xbd10a3a8	-0.035312325
59	0xbd3450aa	-0.04402224
60	0x3dece094	0.115662724
61	0xbd3878a3	-0.045036923
62	0xbd693775	-0.056937654
63	0xbd83a185	-0.06427292
64	0xbd0e55d8	-0.034749836
65	0xbd6b5540	-0.057454348
66	0x3d55af35	0.052169044
67	0xbcbf5ee2	-0.023360673
68	0xbd5d9e43	-0.05410601
69	0x3d9106fb	0.070814095
70	0xbd5bbf64	-0.05364932
71	0xbcf42a18	-0.029805228
72	0xbc95377a	-0.01821493
73	0x3d3a10b6	0.045426093
74	0xbbb3d02f	-0.005487464
75	0xbcfd5bb3	-0.030927515
76	0x3b4d2360	0.0031301603
77	0xbd35f08d	-0.04441886
78	0xbc363ed5	-0.011123379
79	0xbb35ac02	-0.0027720933
80	0xbdcca6de	-0.09992765
81	0x3ce35d2d	0.02775439
82	0x3c176c95	0.009242197
83	0x3d6b5ef6	0.05746361
84	0x3d15a84b	0.03653745
85	0x3d4e3a5d	0.05034863
86	0xbd8ed509	-0.06974227
87	0xbc0745a8	-0.008256353
88	0xbcbae5e2	-0.022814695
89	0x3cb7d0f8	0.022438511
90	0x3c72bee9	0.014816024
91	0xbd69a9dd	-0.05704676
92	0xbcf96a4b	-0.030446192
93	0x3cf725b1	0.03016934
94	0xbcddf759	-0.027095484
95	0xbcdccf9c	-0.026954465
96	0xbc313b97	-0.01081743
97	0xbdfa57d4	-0.12223783
98	0xbe00b958	-0.12570703
99	0xbcc79bfb	-0.02436637
100	0xbddcd5ce	-0.107829675
101	0xbc4246c3	-0.011857691
102	0xbae55251	-0.0017495846
103	0xbd99d45a	-0.07511206
104	0xbd750f5b	-0.059829097
105	0x3cf65dba	0.03007399
106	0xbca91563	-0.02064008
107	0xbc457c39	-0.012053543
108	0xbd486f9d	-0.048934568
109	0xbc87b6b0	-0.016566604
110	0x3d88cdcb	0.06679877
111	0x3d9151c6	0.07095675
112	0xbbde058a	-0.0067755627
113	0xbca43f00	-0.020049572
114	0xbd86db2d	-0.06584773
115	0x3cd1ad8d	0.02559545
116	0x3ca54ec4	0.02017916
117	0xbdb35187	-0.087557845
118	0xbceb578f	-0.028728275
119	0xbda65e21	-0.081234224
120	0xbbafa673	-0.0053604185
121	0x3c5623de	0.013070075
122	0xbdae1c26	-0.08501463
123	0x39b85980	0.00035161898
124	0x3d6400fa	0.055664994
125	0x3db8da85	0.09026054
126	0x3cd82553	0.026384985
127	0xbcd7e208	-0.026352897
128	0x3d945f24	0.07244709
129	0x3da4f72d	0.080549575
130	0x3cc222b8	0.023698196
131	0xbcf1f63d	-0.02953636
132	0xbda01ba8	-0.07817775
133	0x3cdf8931	0.027287098
134	0x3cb18fbc	0.021674983
135	0xbd560eb9	-0.052260134
136	0xbc8dc4a8	-0.017305687
137	0x3dea0abb	0.11427828
138	0x3d95e70f	0.073194616
139	0xbd3a2ad7	-0.04545101
140	0x3dadcc7a	0.084862664
141	0x3ca440e0	0.020050466
142	0xbd916bc4	-0.07100633
143	0x3d1d2821	0.038368348
144	0xbd31818b	-0.043336432
145	0x3d0ae03c	0.033905253
146	0xbcc145cd	-0.023592854
147	0x3e191018	0.14947546
148	0x3c7ad989	0.0153106535
149	0xbc398fce	-0.01132579
150	0x3db5484b	0.088516794
151	0x3bec2bf4	0.007207388
152	0xbdcd4cb2	-0.10024394
153	0xbd85f8e5	-0.065416135
154	0x3c58db08	0.013235815
155	0xbd47c4f9	-0.048771832
156	0xbd91d163	-0.071200155
157	0xbcc9494a	-0.02457108
158	0xbb5f99cc	-0.003411877
159	0x3d5fc434	0.054630473
160	0xba59f6bc	-0.00083146594
161	0xbe08cd98	-0.13359678
162	0xbd1cb754	-0.038260773
163	0x3d01f292	0.031725474
164	0x3c91ed5d	0.017813379
165	0x3b921664	0.0044582356
166	0x3cd769d1	0.026295574
167	0xbdceb6f6	-0.10093491
168	0x3d8ad92f	0.06779706
169	0x3d8ea287	0.069645934
170	0xbd214960	-0.039376616
171	0xbd5115f9	-0.051046345
172	0xbdc516e6	-0.09623508
173	0x3c556bf2	0.013026224
174	0xbd48c055	-0.049011547
175	0xbd1efbb2	-0.038814254
176	0xbd6963e7	-0.05698004
177	0x3d56b054	0.052414253
178	0x3d38cd93	0.045117926
179	0x3de05dde	0.10955404
180	0xbdf641f3	-0.120242976
181	0xbbe1aced	-0.0068870694
182	0x3d08fdfa	0.033445336
183	0xbcc6bad6	-0.024259012
184	0x3d8c0b8c	0.0683814
185	0x3cfdff8e	0.031005647
186	0xbac1a467	-0.0014773727
187	0xbc9b646f	-0.018968789
188	0x3d593ab2	0.05303449
189	0xbdb92223	-0.09039714
190	0x3d928e2a	0.07156022
191	0xbd2f0de7	-0.042737868
192	0x3dbb46da	0.09144373
193	0xbd21025f	-0.039308902
194	0xbd03a82d	-0.032142807
195	0xbdcc9e66	-0.099911496
196	0x3e08db26	0.13364848
197	0x3cbbf928	0.022945955
198	0xbcb73cae	-0.022367802
199	0xbd407010	-0.04698187
200	0xbd12e4fe	-0.035862915
201	0xbb36d0ac	-0.0027895374
202	0x3c3c38b7	0.011488131
203	0x3ddccd31	0.10781325
204	0x3d1d1e31	0.03835887
205	0xbb7cb261	-0.003855847
206	0xbb2c772d	-0.0026316151
207	0xbd7251ab	-0.059159916
208	0x3c93383a	0.017971147
209	0xbd2b36ad	-0.04180019
210	0xbd3a7064	-0.04551734
211	0xbcc32a34	-0.023823835
212	0xbd8c0406	-0.06836705
213	0xbd053578	-0.032521695
214	0x3d386bad	0.045024563
215	0x3dcbcfa9	0.099517174
216	0x3cc864b0	0.024462074
217	0x3b6b3df0	0.0035895072
218	0xbdd86064	-0.1056526
219	0x3c352df7	0.011058322
220	0x3c15b9bd	0.009138522
221	0x3d85743e	0.06516312
222	0xbb86f7e5	-0.004118907
223	0x3da9eacd	0.08296738
224	0xbdc18219	-0.09448642
225	0x3d0db7e8	0.034599215
226	0x3d8ffbb1	0.07030428
227	0xbd0651d9	-0.0327929
228	0xbe07ddb4	-0.13268167
229	0x3da17f29	0.07885582
230	0x3b6f0774	0.0036472948
231	0x3da3faeb	0.08006843
232	0x3c005528	0.007832803
233	0x3e26ae42	0.16277412
234	0x3d9ef86b	0.07762226
235	0xbd2a50d9	-0.04158101
236	0x3b6f3ec7	0.0036505924
237	0x3c9f8b86	0.01947571
238	0x3d17bd39	0.03704569
239	0xbd31a41c	-0.043369398
240	0xbdb97693	-0.09055819
241	0x3c3058b3	0.010763335
242	0xbd3aceb0	-0.04560727
243	0xbc7edbc6	-0.015555328
244	0xbd5d5dce	-0.054044537
245	0xbdb05cdb	-0.08611461
246	0xbd4c7c48	-0.04992321
247	0xbd8a1438	-0.06742138
248	0x3c4f909b	0.012668754
249	0xbc063b42	-0.008192839
250	0x3cff7117	0.031181855
251	0x3d4f77ad	0.05065124
252	0x3bb16e7d	0.0054147826
253	0x3c8371c4	0.016045459
254	0x3ccde35d	0.02513283
255	0xbd9de4ec	-0.07709679

std.constant7 f4 [128]
0	0xbf8f8c82	-1.1214755
1	0xbded5077	-0.11587613
2	0xbee13997	-0.4398925
3	0xbef38ed0	-0.47569895
4	0xbf49b867	-0.78797
5	0xbf02ea80	-0.5113907
6	0xbf9a4d00	-1.2054749
7	0xbf7ddf59	-0.99168926
8	0xbf25542a	-0.6458155
9	0xbeda2ecc	-0.42613828
10	0xbf25ec7d	-0.6481398
11	0xbfa2d7cd	-1.2722107
12	0xbebb1e60	-0.36546612
13	0xbe163d91	-0.14671923
14	0xbf841e96	-1.0321834
15	0xbe48b1b6	-0.19599041
16	0xbf5ff1e3	-0.87478465
17	0xbfa7ff35	-1.3124758
18	0xbf88ed8a	-1.0697491
19	0xbd241837	-0.040062156
20	0xbf8ebdeb	-1.1151708
21	0xbf6dfc2f	-0.92962927
22	0xbfa41651	-1.281931
23	0xbf62ff65	-0.8867095
24	0xbf80e337	-1.006934
25	0xbf3e2a8c	-0.7428367
26	0xbf848e7e	-1.0355985
27	0xbf203ede	-0.6259593
28	0xbe2e7625	-0.17037256
29	0xbf5ac1f6	-0.8545221
30	0xbf9c4f0a	-1.2211621
31	0xbcfa9c2b	-0.030592045
32	0xbf47c112	-0.78028977
33	0xbf57208a	-0.84034026
34	0xbf9c694e	-1.2219636
35	0xbf84a51b	-1.0362886
36	0xbf8d10a9	-1.1020709
37	0xbf374aaf	-0.71598333
38	0xbfaeec48	-1.3665857
39	0xbf6cc008	-0.92480516
40	0xbf0c2199	-0.54738766
41	0xbf5ff80b	-0.8748786
42	0xbf56d836	-0.8392366
43	0xbe97564c	-0.29558027
44	0xbf9ced7e	-1.2259977
45	0xbd192063	-0.037384402
46	0xbf5b8164	-0.8574431
47	0xbfa6c733	-1.3029541
48	0xbea2143c	-0.31656063
49	0xbf9acec0	-1.2094345
50	0xbeebca81	-0.46052936
51	0xbd73c2b1	-0.059511844
52	0x3d0abd8a	0.033872165
53	0xbf55862c	-0.83407855
54	0xbf9057bb	-1.1276773
55	0xbf823880	-1.0173492
56	0xbf79eeab	-0.97629803
57	0xbf2ff9fd	-0.68740827
58	0xbf40edec	-0.7536304
59	0xbf188f4d	-0.5959366
60	0xbd78a937	-0.06070825
61	0xbe1ccbf7	-0.15312181
62	0xbf7d1b17	-0.9886946
63	0xbf420d74	-0.7580178
64	0xbe7af973	-0.2450922
65	0xbf5997ab	-0.8499705
66	0x3de53725	0.111921586
67	0xbf3f470b	-0.7471778
68	0xbdef7888	-0.116929114
69	0xbf20fe3e	-0.6288794
70	0xbf62433f	-0.8838386
71	0xbdd948fd	-0.106096245
72	0xbfa779aa	-1.3084004
73	0xbf8ed543	-1.1158832
74	0xbf8687cc	-1.0510192
75	0xbf554641	-0.83310324
76	0xbec4a70b	-0.38408694
77	0xbdcb636b	-0.09931072
78	0xbf91399f	-1.134571
79	0xbf920cd8	-1.141017
80	0xbf8c4d81	-1.0961152
81	0xbf80a405	-1.0050055
82	0xbf626d6a	-0.884482
83	0xbe0ec460	-0.13942099
84	0xbeb9bee0	-0.3627844
85	0xbf54d029	-0.8313013
86	0xbf81b84b	-1.0134367
87	0xbf81ccd9	-1.014064
88	0xbea4cae0	-0.3218603
89	0xbf698d6d	-0.91231424
90	0xbf43a924	-0.76429963
91	0xbf9e8d8d	-1.2386948
92	0xbf69bcda	-0.9130379
93	0xbf066a69	-0.5250612
94	0xbf2db0fb	-0.67848176
95	0xbe319380	-0.17341423
96	0xbfa33cd9	-1.2752944
97	0x3dc6e3dd	0.0971143
98	0xbefe0474	-0.49612772
99	0xbf9a36a4	-1.2047925
100	0xbee8a679	-0.4543951
101	0xbf689fa2	-0.9086858
102	0xbf4a4bdc	-0.79022
103	0xbf939da4	-1.1532483
104	0xbf93293e	-1.1496961
105	0x3d0a93d7	0.033832397
106	0xbe79a6f0	-0.24380088
107	0xbf894b03	-1.0726017
108	0xbf7e3fa0	-0.99315834
109	0xbf83d7c3	-1.030022
110	0xbdb3da9f	-0.08781933
111	0xbfb84985	-1.4397436
112	0xbfa002d2	-1.2500861
113	0xbeb6da26	-0.3571331
114	0xbf1ef046	-0.6208538
115	0xbdb058fb	-0.08610722
116	0xbf200df0	-0.62521267
117	0xbd5f2b54	-0.05448468
118	0xbe6858d7	-0.2269014
119	0xbf6a1986	-0.91445196
120	0xbf9eed19	-1.2416106
121	0xbf6f5f74	-0.93505025
122	0xbf80dd31	-1.0067502
123	0xbf99866e	-1.199415
124	0xbe8ab840	-0.27093697
125	0xbf7ae083	-0.9799883
126	0xbdf09711	-0.11747564
127	0xbf922318	-1.141696

std.constant8 f4 [128]
0	0xbca0003c	-0.019531362
1	0x3f7d94ac	0.9905498
2	0x3f1fd409	0.62432915
3	0x3f1d4b0b	0.6144263
4	0x3dd1f606	0.10252003
5	0x3f061c42	0.5238687
6	0x3d12b657	0.035818424
7	0x3e0ad730	0.1355865
8	0x3edaca76	0.4273259
9	0x3f21afe5	0.6315902
10	0x3e6dbb14	0.23215896
11	0xbd92b025	-0.07162503
12	0x3f2f60e4	0.6850722
13	0x3f7a1693	0.97690696
14	0xbc6f5408	-0.014607437
15	0x3f6c6bae	0.92351806
16	0x3e1d97e9	0.1538998
17	0xbd877353	-0.06613793
18	0x3da400bc	0.080079526
19	0x3f875239	1.0571967
20	0xbe3910b5	-0.1807278
21	0x3d8e752b	0.06955942
22	0xbe140487	-0.14454852
23	0x3e61387d	0.21994205
24	0x3d5ce7e3	0.053932082
25	0x3e1a6f07	0.15081416
26	0x3cfd128b	0.030892631
27	0x3e955e4e	0.2917351
28	0x3f723a1d	0.94619924
29	0x3e71f329	0.23627914
30	0xbdb2950b	-0.08719834
31	0x3f86eaab	1.0540365
32	0x3e6fdf08	0.23424923
33	0x3dd77568	0.1052044
34	0x3af188da	0.0018427626
35	0xbce4353a	-0.027857412
36	0xbde14603	-0.10999682
37	0x3ec64222	0.3872233
38	0xbe02e438	-0.12782371
39	0x3dcc5915	0.099779285
40	0x3f23fa79	0.64054066
41	0x3e541ee3	0.20714907
42	0x3e26515e	0.16241977
43	0x3f15a843	0.5845987
44	0x3d129ef8	0.035796136
45	0x3f890fad	1.0707909
46	0x3dc37dce	0.0954548
47	0xbdd31e9f	-0.10308575
48	0x3f244415	0.64166385
49	0x3d0b8a07	0.03406718
50	0x3f1fef28	0.624743
51	0x3f861cbc	1.0477519
52	0x3f93d09f	1.1548041
53	0x3e75be81	0.23998453
54	0xbc8c1bb5	-0.017103055
55	0x3da2fc3e	0.07958268
56	0x3d7ed13a	0.062211253
57	0x3e8565a0	0.26054096
58	0x3e71e6a6	0.23623142
59	0x3f021e5b	0.5082757
60	0x3f83b492	1.0289481
61	0x3f701358	0.93779516
62	0x3d99397b	0.07481667
63	0x3daaaf8e	0.08334266
64	0x3f474155	0.77834064
65	0x3e7daf5f	0.2477393
66	0x3f9db456	1.2320659
67	0x3e731547	0.23738585
68	0x3f16b220	0.5886555
69	0x3ea5adcf	0.32359168
70	0x3e52be5d	0.2058043
71	0x3f7b49d9	0.9815956
72	0xbe103f86	-0.14086732
73	0x3d4253bd	0.04744314
74	0xbd0db44c	-0.034595773
75	0x3e466182	0.19373134
76	0x3f2c8fcb	0.6740691
77	0x3f7c0612	0.9844676
78	0x3ced7397	0.028985782
79	0x3cf4a4b5	0.029863695
80	0x3c9f156a	0.01941939
81	0x3cd05337	0.025430305
82	0x3e65ebe9	0.22453274
83	0x3f6f7ed9	0.9355293
84	0x3f342ba9	0.7037912
85	0x3e9a6d8a	0.30161697
86	0x3df57106	0.11984448
87	0x3c85c6b5	0.016330102
88	0x3f5621e5	0.8364547
89	0x3e92abdb	0.2864674
90	0x3ed339df	0.4125509
91	0xbd36020f	-0.044435557
92	0x3e13c342	0.14429954
93	0x3f10317e	0.5632552
94	0x3e9fb6bb	0.311941
95	0x3f1f25a5	0.62166816
96	0xbdd8e610	-0.10590756
97	0x3f2a8faa	0.66625464
98	0x3ef4244a	0.47683936
99	0xbdb5a7e9	-0.08869917
100	0x3f0dd0a2	0.55396473
101	0x3e368c48	0.1782695
102	0x3db5d133	0.08877792
103	0xbc47e1ff	-0.012199878
104	0xbc771d1b	-0.015082623
105	0x3f900996	1.1252925
106	0x3f4ef4ef	0.8084249
107	0x3e25ca17	0.16190372
108	0xbce3e06d	-0.027816975
109	0xbd5d0030	-0.053955257
110	0x3f805d63	1.0028499
111	0xbe29e1be	-0.1659002
112	0x3d9435c5	0.07236818
113	0x3ee1edaf	0.4412665
114	0x3f1f4383	0.6221239
115	0x3f811d32	1.0087035
116	0x3e2c6e56	0.16838965
117	0x3f844210	1.0332661
118	0x3f4984b0	0.7871809
119	0x3de34a45	0.1109815
120	0xbe0262c0	-0.12732983
121	0x3e251be0	0.16123915
122	0x3d1f3c52	0.038875885
123	0xbda1f41b	-0.079078875
124	0x3f09772d	0.5369747
125	0x3e401b8e	0.18760511
126	0x3f787428	0.9705224
127	0xbbd47ca7	-0.0064845863

std.constant9 f4 [128]
0	0x3c82ee94	0.015982904
1	0xbb364bb3	-0.0027816116
2	0x3b913b61	0.0044321273
3	0xbc9e5728	-0.019328669
4	0xbc0cdc0b	-0.008597384
5	0x3be8469f	0.007088497
6	0x3c942e54	0.018088497
7	0xbc3ab113	-0.011394757
8	0xbb5a12d6	-0.0033275387
9	0x3b93f26f	0.0045149843
10	0x3af0d9ea	0.001837549
11	0x3adc90fa	0.0016827874
12	0x3c4af92c	0.012388509
13	0xbbde5809	-0.006785397
14	0x3c6b9253	0.014378148
15	0xbb95b95c	-0.0045692157
16	0xbb81eae0	-0.003964767
17	0xbc8bdc22	-0.017072741
18	0x3c63bb2b	0.013899605
19	0x3b8d4b47	0.0043119523
20	0xbb8c0adc	-0.0042737555
21	0xbc0ba12a	-0.008522311
22	0x3b779c29	0.0037782288
23	0xbbe3f645	-0.006956848
24	0xbbe4e9fb	-0.0069859005
25	0xbc912ed9	-0.017722534
26	0x3c2275ab	0.00991575
27	0x3c198037	0.009368948
28	0x3b2dda36	0.002652777
29	0x3aa0a985	0.0012257552
30	0xbc42d402	-0.011891367
31	0x3b7fa438	0.0039007794
32	0x3b273c3e	0.0025518085
33	0xbc03bb5e	-0.008040277
34	0x3ba62db8	0.005071368
35	0x3bfd7b77	0.0077356654
36	0xbc5992c1	-0.013279618
37	0x3c97a1b9	0.018509733
38	0x3c4e5fd7	0.012596092
39	0xbc29f134	-0.010372449
40	0xbb08bce8	-0.002086455
41	0x3be1c29f	0.0068896557
42	0x3c64d3a1	0.013966472
43	0xbb527948	-0.0032115746
44	0x3c4c48af	0.012468501
45	0x3ad6e253	0.0016394354
46	0xbc0340e2	-0.008011075
47	0x3a956637	0.001139826
48	0xbbb9275e	-0.005650445
49	0x39217ba1	0.00015400212
50	0x3af5c6aa	0.0018751223
51	0x3bc03a71	0.0058663418
52	0xbb962292	-0.004581758
53	0x3bd17d20	0.00639309
54	0xbc08cbf4	-0.008349407
55	0xbc32e66b	-0.010919194
56	0x3c4ed0f8	0.012623064
57	0xbbc6642c	-0.006054422
58	0xbb94f242	-0.004545481
59	0xbb72caad	-0.0037047074
60	0xba8c9019	-0.0010724097
61	0xbbc94d3b	-0.00614324
62	0xbc50377f	-0.012708544
63	0xbc1e0ce0	-0.009646624
64	0xbb88160a	-0.004153018
65	0xbbaff856	-0.00537018
66	0xbba3ae43	-0.004995139
67	0xbc580126	-0.013183868
68	0x3c4b12e6	0.012394642
69	0xbb5b8c0d	-0.0033500225
70	0xbc84127c	-0.016122095
71	0xbb6cc76f	-0.0036129614
72	0xbbd62c9a	-0.0065360786
73	0x3bb73c87	0.005591932
74	0xbc0be61c	-0.008538749
75	0x3c897226	0.016778063
76	0xbc2769fe	-0.010218142
77	0xbb153f1f	-0.0022773219
78	0x3af6c585	0.0018827176
79	0xbc1ce1d3	-0.009575325
80	0xba8a35f4	-0.0010544644
81	0x3c0d9d84	0.008643512
82	0xbba2d3db	-0.004969103
83	0x3b6db44a	0.003627079
84	0x3bb8e800	0.005642891
85	0xbb8e8020	-0.00434877
86	0x3a847918	0.001010689
87	0xbc17f34e	-0.009274317
88	0x3ac11b97	0.0014732954
89	0x3b9915e8	0.004671801
90	0x3b77333e	0.0037719752
91	0x3b3cf027	0.0028829665
92	0x3baf8174	0.005356008
93	0xbbb048a7	-0.0053797546
94	0xbb9bb57f	-0.0047518606
95	0x3b73592f	0.0037132015
96	0x3bcfa2ec	0.0063365605
97	0x3c2283ef	0.009919151
98	0x3c0a252c	0.008431714
99	0x3b691455	0.0035565097
100	0xbc1a9d24	-0.009436879
101	0xbc136dfe	-0.008998392
102	0x3c05ce74	0.008166898
103	0x3c21a794	0.009866614
104	0x3c6bd575	0.014394154
105	0x3b8df169	0.004331757
106	0x3b341f5b	0.002748451
107	0xbba7d7c0	-0.005122155
108	0x3c98e1a7	0.018662287
109	0xbc2806e6	-0.010255551
110	0x3b1576a6	0.0022806316
111	0x3c5dc165	0.013534878
112	0xbb04bf9a	-0.0020255805
113	0xbbb53e0d	-0.0055310787
114	0xbb0e9fbf	-0.0021762697
115	0xbb54be73	-0.003246215
116	0xbc4805cb	-0.012208412
117	0xbbdec2ec	-0.006798139
118	0x3b8d1d0c	0.004306441
119	0xbbfbb46b	-0.0076814196
120	0xbc3cbc04	-0.011519436
121	0xbbd1f35b	-0.006407184
122	0x3bb53d31	0.005530976
123	0xbba83bc0	-0.005134076
124	0xbc3fd008	-0.011707313
125	0xbc59cc1a	-0.0132932905
126	0x3b673547	0.0035279559
127	0xbc1af158	-0.009456955

std.constant10 f4 [128]
0	0xbf80e4b7	-1.0069798
1	0xbe034f39	-0.1282319
2	0xbed835e9	-0.4222863
3	0xbef4b682	-0.47795492
4	0xbf4183fd	-0.75592023
5	0xbf02de84	-0.5112078
6	0xbf8e9171	-1.1138135
7	0xbf70035e	-0.9375514
8	0xbf24666a	-0.6421877
9	0xbed6d91d	-0.4196252
10	0xbf25f78b	-0.64830846
11	0xbfa1f764	-1.2653623
12	0xbebcd9b5	-0.36884847
13	0xbcd6eeaf	-0.02623686
14	0xbf7cb67f	-0.98715967
15	0xbe524bc2	-0.20536712
16	0xbf5f51dc	-0.8723428
17	0xbf9a76e0	-1.2067528
18	0xbf85e5fc	-1.0460811
19	0xbd1aeb2d	-0.037821937
20	0xbf8b08fb	-1.0862116
21	0xbf6394da	-0.88899004
22	0xbfa669ed	-1.3001076
23	0xbf5caa1c	-0.86197066
24	0xbf81c8b2	-1.0139372
25	0xbf2791ed	-0.6545704
26	0xbf83402c	-1.0253959
27	0xbf1d97db	-0.6155984
28	0xbe34e8ba	-0.17666903
29	0xbf55a23a	-0.83450663
30	0xbf99ae40	-1.2006302
31	0xbcd5381d	-0.026027733
32	0xbf471348	-0.77763796
33	0xbf585fb5	-0.8452104
34	0xbf8fba5d	-1.1228749
35	0xbf756ddb	-0.9587075
36	0xbf86105c	-1.0473742
37	0xbf359ff9	-0.70947224
38	0xbfa91dcd	-1.321222
39	0xbf6abeff	-0.91697687
40	0xbf0e95ac	-0.5569713
41	0xbf5d960a	-0.86557066
42	0xbf5538b6	-0.8328966
43	0xbe91a892	-0.2844892
44	0xbf997584	-1.1988988
45	0xbd1f2b2c	-0.03885953
46	0xbf572f6e	-0.84056747
47	0xbfa2cb40	-1.2718277
48	0xbe9b3b43	-0.3031865
49	0xbf985129	-1.1899768
50	0xbef07044	-0.46960652
51	0xbd1edd90	-0.038785517
52	0x3ce93f38	0.028472528
53	0xbf4b783b	-0.7948033
54	0xbf8b2688	-1.0871134
55	0xbf80d997	-1.0066403
56	0xbf7963b5	-0.97417766
57	0xbf2d586a	-0.67713034
58	0xbf3d2a88	-0.7389302
59	0xbf17de3d	-0.59323484
60	0xbd907f3d	-0.07055519
61	0xbdf3cf3a	-0.1190476
62	0xbf6596e4	-0.89683366
63	0xbf4092f8	-0.75224257
64	0xbe7aed19	-0.24504508
65	0xbf5432b8	-0.8288989
66	0x3dd9cd93	0.10634913
67	0xbf3e9a0e	-0.7445382
68	0xbddb4c35	-0.10707895
69	0xbf20e1f9	-0.62844807
70	0xbf62799a	-0.884668
71	0xbde85a77	-0.1134538
72	0xbfa6bfb3	-1.3027252
73	0xbf8c51bf	-1.0962447
74	0xbf872432	-1.0557921
75	0xbf4d1ccf	-0.80122083
76	0xbec0bf45	-0.37645927
77	0xbdd014b6	-0.101602
78	0xbf89b10d	-1.0757157
79	0xbf920a5e	-1.1409414
80	0xbf888b39	-1.0667487
81	0xbf783a79	-0.9696422
82	0xbf59fe93	-0.85154074
83	0xbe0fc8ef	-0.14041494
84	0xbeb0c990	-0.3452878
85	0xbf54c2e9	-0.8310991
86	0xbf7fd460	-0.99933434
87	0xbf82103d	-1.0161206
88	0xbead6278	-0.33864188
89	0xbf6879b4	-0.90810704
90	0xbf430e52	-0.76193726
91	0xbf9818d4	-1.1882577
92	0xbf6632cd	-0.89921266
93	0xbf06249a	-0.523996
94	0xbf2b7888	-0.6698079
95	0xbe302a29	-0.17203583
96	0xbf9b954a	-1.2154934
97	0x3dd91082	0.10598852
98	0xbefd26fa	-0.494438
99	0xbf9b0e51	-1.2113744
100	0xbee79376	-0.4522969
101	0xbf664a26	-0.8995689
102	0xbf42f69d	-0.7615755
103	0xbf8fae97	-1.1225156
104	0xbf922646	-1.141793
105	0x3c029b15	0.007971545
106	0xbe775b5d	-0.24155946
107	0xbf868b93	-1.0511345
108	0xbf762014	-0.961427
109	0xbf80ebdc	-1.0071979
110	0xbdb3e084	-0.08783057
111	0xbfb726bb	-1.4308695
112	0xbf89f905	-1.077912
113	0xbea92642	-0.33037
114	0xbf1d85d0	-0.61532307
115	0xbdad686a	-0.08467181
116	0xbf1e0461	-0.6172543
117	0xbd258ad4	-0.0404156
118	0xbe5b44bb	-0.21412937
119	0xbf5abf3b	-0.85448045
120	0xbf9d25e1	-1.2277185
121	0xbf6170aa	-0.88062537
122	0xbf7e8e6a	-0.99436057
123	0xbf98f088	-1.1948404
124	0xbe8a7329	-0.27040985
125	0xbf72bbda	-0.9481789
126	0xbde187b8	-0.110122144
127	0xbf9157ba	-1.1354897

std.constant11 f4 [128, 6]
0	0xbcf9a6b2	-0.030474994
1	0xbd014426	-0.031559132
2	0x3dce9c02	0.1008835
3	0x3d99b5f7	0.0750541
4	0xbbd42854	-0.006474534
5	0x3bf61e01	0.007510901
6	0x3e013ae2	0.12620118
7	0x3ed6e7cc	0.41973722
8	0x3ec723e5	0.38894573
9	0x3e881a7a	0.265827
10	0x3e82ee1c	0.25572288
11	0x3e2fed4a	0.17180362
12	0x3e2c665a	0.16835919
13	0x3e9f3727	0.31096765
14	0x3e4f4fbc	0.2024526
15	0x3ea36393	0.31911907
16	0x3eb68361	0.3564711
17	0x3ea01a79	0.31270197
18	0x3b0b1291	0.0021220783
19	0x3e00800c	0.12548846
20	0x3e2f9d32	0.17149809
21	0x3df32dba	0.11873956
22	0x3d98bde6	0.07458095
23	0x3cedfd75	0.029051522
24	0xbce73473	-0.028223252
25	0xbd9dc821	-0.07704187
26	0x3d3eaf39	0.046553824
27	0x3c507b8b	0.012724767
28	0x3db5aa51	0.08870376
29	0x3c9d57ed	0.019206965
30	0x3e266c04	0.16252142
31	0x3e56b4d9	0.20967425
32	0x3e2cc80e	0.1687319
33	0x3ca942cc	0.020661734
34	0x3a2c91b5	0.00065829913
35	0xbcd7faf6	-0.026364785
36	0x3bb3b627	0.0054843607
37	0x3dc64294	0.096806675
38	0x3e254575	0.16139777
39	0xbd69dde8	-0.057096392
40	0xbdd11206	-0.10208516
41	0xbdcabf56	-0.09899776
42	0x3d8eda65	0.06975249
43	0x3cbf1b3b	0.023328414
44	0x3dcfcb47	0.10146194
45	0x3c03b40b	0.008038531
46	0x3d992f0e	0.07479678
47	0xbd96bb27	-0.07359915
48	0x3d8a8635	0.06763879
49	0xbd386fe8	-0.045028597
50	0x3d843d68	0.06457025
51	0xbb4bd5d2	-0.0031102789
52	0x3dafcb86	0.08583741
53	0x3dc4fd8c	0.09618673
54	0x3d82f04a	0.06393488
55	0x3d5d43c3	0.0540197
56	0xbd0d03d5	-0.034427483
57	0xbd823f6e	-0.063597545
58	0x3e18db17	0.14927326
59	0x3d9b19c6	0.07573275
60	0x3e1135a7	0.14180623
61	0xbc4f0d5a	-0.012637461
62	0x3d16d8d9	0.036827896
63	0x3e03a271	0.12854935
64	0x3db5df22	0.0888045
65	0xbd7a0c44	-0.061046854
66	0x3dfd85df	0.123790495
67	0x3c4215cf	0.01184602
68	0x3d8cfe6c	0.068844646
69	0x3dfefa6a	0.124501064
70	0x3e0168d9	0.12637652
71	0x3dc9e030	0.098572135
72	0x3e2afbc1	0.16697599
73	0x3e4c45ca	0.19948497
74	0x3dabdee6	0.08392124
75	0x3c0550e1	0.008136959
76	0x3e0cab1c	0.13737148
77	0x3d5dc106	0.05413916
78	0x3f95535d	1.1666065
79	0x40023ee9	2.0350897
80	0x3fbbe973	1.4680618
81	0x3fa70d1d	1.3050877
82	0x3fb1d143	1.3891987
83	0x3fbe6f0d	1.487764
84	0x3bf01921	0.0073272143
85	0x3dcdfa48	0.10057503
86	0x3dc64ff3	0.09683218
87	0x3e0233c5	0.12715061
88	0x3d8315be	0.06400631
89	0x3dad8257	0.08472126
90	0x3e49e640	0.1971674
91	0x3ef7c50a	0.48392516
92	0x3e9677a6	0.2938816
93	0x3e563b64	0.20921093
94	0x3ece1d6d	0.40256825
95	0x3ee1345d	0.43985263
96	0x3e088301	0.13331224
97	0x3e173447	0.14766036
98	0x3dce4961	0.1007259
99	0x3dcc8a2a	0.0998729
100	0x3d3f2f4b	0.04667596
101	0xbd0b8703	-0.034064304
102	0x3ddc4598	0.107554615
103	0x3d258fee	0.040420465
104	0x3c894515	0.016756574
105	0x3df205fe	0.11817549
106	0x3ce2d789	0.027690666
107	0x3d0dd5ee	0.034627847
108	0x3e003f5a	0.12524167
109	0x3c950e36	0.018195253
110	0xbbe18f8a	-0.0068835663
111	0x3d927ee8	0.07153112
112	0x3c98d4fc	0.018656246
113	0xbc9f376c	-0.019435607
114	0x3ec8eb58	0.39242053
115	0x3f0e27c6	0.5552944
116	0x3e9e082c	0.3086561
117	0x3ec57d2d	0.38572064
118	0x3f9fd4b2	1.2486784
119	0x3f9a7c3e	1.2069166
120	0x3d1554fe	0.036458008
121	0x3d4a441e	0.049381368
122	0x3e0eb26d	0.13935252
123	0xbcb30525	-0.021853039
124	0x3be1801b	0.0068817264
125	0x3d2bb998	0.041925043
126	0x3e016a74	0.12638265
127	0x3de4519e	0.1114838
128	0x3de1080b	0.10987862
129	0xbbd0cd20	-0.006372109
130	0x3e1222fb	0.14271156
131	0x3e0df9d8	0.13864839
132	0x3e48c75b	0.19607298
133	0x3e091361	0.13386299
134	0x3e00097b	0.12503617
135	0x3dee4b37	0.1163544
136	0x3d8e61c9	0.06952245
137	0x3ddff827	0.10936003
138	0x3cb8dd96	0.022566598
139	0x3cb35abe	0.021893855
140	0x3d8b93a8	0.068152726
141	0x3a2c35d3	0.00065693
142	0xbd018df3	-0.031629514
143	0xbcebf680	-0.028804064
144	0x3def0128	0.116701424
145	0x3c92f70a	0.017940063
146	0x3e4991fc	0.19684595
147	0x3d55922a	0.052141346
148	0xbd37aba5	-0.044841427
149	0x3e020d38	0.12700355
150	0xbca5bc2c	-0.020231329
151	0x3b8ffecd	0.0043943883
152	0x3d0ede2d	0.034879852
153	0x3da505a4	0.080577165
154	0x3b5336fc	0.0032228818
155	0x3de17ac9	0.110097475
156	0x3cd479fc	0.025937073
157	0xbd0ef2f1	-0.034899656
158	0x3e00acfd	0.1256599
159	0x3ddec7d6	0.108779594
160	0x3dc6d1aa	0.09707959
161	0x3daa21e4	0.083072454
162	0xba09036b	-0.00052266446
163	0x3d79d380	0.060992718
164	0xbcc34221	-0.023835244
165	0xbd8cf995	-0.068835415
166	0x3dacc9d8	0.08436936
167	0x3dc95f91	0.09832681
168	0x3db8e541	0.09028102
169	0x3e045de0	0.12926435
170	0x3d7664e8	0.060154825
171	0x3e200dd4	0.15630275
172	0x3e6017a3	0.21884017
173	0x3c674110	0.014114633
174	0x3d2c3d7c	0.042050824
175	0xbc1d4806	-0.009599691
176	0x3e0cbc8d	0.13743801
177	0x3dd95a30	0.10612905
178	0xbce165c9	-0.027514355
179	0x3d1ade95	0.037809927
180	0x3df7282e	0.120682105
181	0x3da1e0df	0.07904219
182	0x3d0ac308	0.033877403
183	0x3daaf7d8	0.08348054
184	0x3e1b4bc9	0.15165628
185	0x3e1f7f9c	0.15576023
186	0x3e4a6d83	0.19768338
187	0x3eb2f146	0.34949702
188	0x3e735cb1	0.23765828
189	0x3e169473	0.14705066
190	0x3f151bd8	0.5824561
191	0x3f2412e4	0.64091325
192	0x3c39dfa3	0.011344823
193	0x3e18c830	0.14920115
194	0x3e27490e	0.16336462
195	0x3e17da74	0.14829427
196	0x3e1fb108	0.15594876
197	0xbd20a224	-0.03921713
198	0x3da90160	0.082522154
199	0x3e19ce5f	0.1502013
200	0x3dfa386a	0.122177914
201	0x3d998a3a	0.07497068
202	0x3dd41c21	0.10356928
203	0x3da0d340	0.07852793
204	0x3cc5bfa2	0.02413923
205	0x3b4603ee	0.0030214745
206	0xbd12167c	-0.035665974
207	0xbd66240c	-0.05618672
208	0x3d197389	0.0374637
209	0x3d1e68ba	0.038674094
210	0x3d8a14e6	0.06742267
211	0x3e0c030f	0.13673042
212	0x3d77a6de	0.06046187
213	0x3d9a1d1e	0.07525085
214	0xbd163a62	-0.036676772
215	0xbd4f5ca7	-0.05062547
216	0x3e0558a7	0.130221
217	0xbae31d61	-0.0017327481
218	0xb9cb2590	-0.00038747163
219	0x3d47d2ca	0.04878501
220	0x3dca7f82	0.098876014
221	0xb6929306	-4.368255e-06
222	0x3dc9502f	0.09829747
223	0x3e3026ff	0.17202376
224	0x399265c6	0.00027923117
225	0x3d9b1929	0.07573158
226	0x3d14bfcd	0.036315728
227	0xbcfc0841	-0.030765655
228	0x3c5eb99d	0.013594058
229	0x3d4a40f7	0.04937836
230	0x3d89be09	0.067256995
231	0xbc9da9b8	-0.019245967
232	0x3e017bfe	0.12644956
233	0xbc2743a6	-0.010209
234	0xbb00fa65	-0.0019680497
235	0x3e0716e8	0.13192332
236	0xbcadd34d	-0.02121892
237	0x3cb7710b	0.02239277
238	0x3e277a25	0.16355188
239	0x3e1cab51	0.15299727
240	0x3d607eeb	0.05480854
241	0x3e45fde0	0.19335127
242	0x3dcc10c4	0.09964135
243	0x3c2fa5de	0.010720698
244	0x3e291999	0.16513671
245	0x3d64160d	0.05568509
246	0x3c6d8629	0.014497318
247	0xbd06f71c	-0.032950506
248	0x3e19fd14	0.15037948
249	0x3dbef1e8	0.09323484
250	0xbcaf94d4	-0.021433271
251	0xbc331e45	-0.01093251
252	0x3d1ce1e8	0.03830138
253	0x3e11b60a	0.14229599
254	0x3dd74006	0.105102584
255	0x3b0c2769	0.0021385795
